src/M20_sdk_deploy/policy/policy.onnx (onnx, 785189 bytes, 8 tensors)

actor.0.weight f4 [512, 57]
0.1676153 -0.57469887 0.57724565 -0.06967529 0.34138754 0.26251093 -0.13070966 -0.07136543
-0.008780566 0.56875116 -0.2781103 -0.61111677 0.57164073 0.5186185 -0.34748515 -0.06609172
0.65212405 0.3048669 0.20835578 -0.21137916 0.8310366 -0.13456346 -0.12481072 0.5318993
-0.039240263 0.30472898 -0.3735692 -0.23803927 -1.0315377 0.25800678 0.16881612 -0.050912857
-0.11120824 -0.19347389 -0.08988109 0.6049369 0.5606571 -0.10542099 -0.0707532 -0.22728942
0.065672986 -0.045088444 -0.082438044 -0.006496002 -0.06552221 0.034994006 0.12575166 -0.022143366
0.052476436 0.009195895 -0.032652054 0.082017 -0.12260793 0.0038979056 -0.015761068 0.024919234
0.0024356863 -0.11307944 0.36544797 -1.0013486 0.50293493 0.09427753 0.29136738 0.1543854
-0.6701414 -0.16073406 0.58714396 -0.26031005 -0.6573668 0.17370044 0.36437547 -0.37158576
0.029150734 -0.34645575 0.30902833 -0.17298964 0.27793518 -0.0392987 -0.22567041 -0.27133694
-0.11861223 0.39365232 0.28898764 -0.0270487 -0.5611013 -0.22701468 -0.56779736 0.25710496
0.19213752 -0.21594621 -0.015281211 0.060993925 -0.27904627 -0.23709807 -0.024913775 -0.11919951
-0.21878305 -0.020811075 -0.015087408 0.0080122845 0.09885208 -0.06830658 -0.055133466 0.119970225
8.57515e-05 0.012980777 -0.12839894 -0.026076239 -0.085910484 -0.054085255 0.054965112 0.022323316
0.06917615 -0.030217176 0.1504619 -0.08712201 -0.7150022 0.20148538 0.24615797 0.14349173
0.21520439 -0.88097084 0.15723492 0.803064 0.8539441 -0.11142999 -1.1514237 -0.8504396
-0.9154551 0.25569952 -0.2812756 -0.12533167 -0.36319938 0.3794706 -0.19256619 -0.30445567
0.45282832 0.27784926 -0.041999556 0.22354522 0.28701615 -0.2878339 -0.9429449 -0.68412894
-0.39100233 0.0050650523 -0.2299543 -0.0479825 -0.05903009 -0.46780795 0.08408209 0.064440325
0.007316931 -0.123893656 0.086453974 -0.042242788 -0.077713184 -0.002586146 0.006171845 -0.04080439
0.07189259 -0.0383221 -0.030935954 0.016077714 0.03675122 -0.016045095 0.09126696 -0.04539471
0.05031454 -0.029256497 0.012330149 0.46628308 -0.65851736 0.32127634 -0.42481777 0.13677427
0.34288627 -0.30318326 -0.08760995 0.022099694 -0.28393877 -0.21916799 -0.5669445 0.26180273
0.34583712 -0.14913706 0.098341405 -0.1465204 0.60682625 0.66439945 0.9021403 -0.19519766
0.1177104 -0.2862279 0.011598682 -0.19814049 -0.9712695 0.37618747 0.22731589 0.3052926
-0.15949196 -0.5492821 0.46343103 -0.67898613 0.15972152 -0.63695014 1.0345403 0.6763068
0.1212791 -0.06674375 0.0014227625 0.029692607 -0.043671805 -0.097949944 0.11485554 -0.07956055
-0.005256496 0.17862679 -0.040237244 0.052895352 -0.04420434 -0.04288602 -0.104679786 0.11851644
-0.003565036 -0.01503454 0.004658842 0.020556945 -0.43877187 -0.0073400745 -0.24688683 -0.66909796
0.7147977 0.011667682 0.29609555 -0.22288498 0.09204226 -0.4630232 0.31993985 0.51346046
-0.71038926 0.029216537 0.45398292 0.11884378 -0.366603 -0.35452503 0.20651416 -0.09064383
0.53031117 0.51794887 0.20802839 0.09754713 0.1433254 0.4237851 0.045005664 0.38409784
00000000: 58a3 2b3e 771f 13bf 5fc6 133f ebb1 8ebd
00000010: 59ca ae3e d567 863e c1d8 05be 0a28 92bd
00000020: 5ddc 0fbc ad99 113f 7964 8ebe 2672 1cbf
00000030: 0c57 123f 2fc4 043f 93e9 b1be 185b 87bd
00000040: 9af1 263f 8417 9c3e 385b 553e c773 58be
00000050: d1be 543f 01cb 09be c39c ffbd 8d2a 083f
00000060: 66ba 20bd 7005 9c3e 7644 bfbe 91c0 73be
00000070: 6d09 84bf 7719 843e 22de 2c3e 008a 50bd
00000080: 25c1 e3bd 051e 46be 9413 b8bd 25dd 1a3f
00000090: 3987 0f3f f6e6 d7bd 0ee7 90bd 8fbe 68be
000000a0: 8f7f 863d a9ae 38bd 47d5 a8bd 6adc d4bb
000000b0: 8230 86bd e055 0f3d 0bc5 003e 0166 b5bc
000000c0: 88f1 563d 61aa 163c 29be 05bd 87f8 a73d
000000d0: de19 fbbd 0174 7f3b 5b1d 81bc 6c23 cc3c
000000e0: 09a0 1f3b 3296 e7bd ff1b bb3e 312c 80bf
000000f0: 58c0 003f 9414 c13d 1b2e 953e 3517 1e3e
00000100: 638e 2bbf 7897 24be 114f 163f 5c47 85be
00000110: 3149 28bf 87de 313e 6c8f ba3e 7d40 bebe
00000120: 85cd ee3c a662 b1be f638 9e3e 3224 31be
00000130: 854d 8e3e acf7 20bd 2516 67be adec 8abe
00000140: f8ea f2bd cc8c c93e 30f6 933e 3c95 ddbc
00000150: 56a4 0fbf 8976 68be 2b5b 11bf 43a3 833e
00000160: b3bf 443e 0121 5dbe 0b5e 7abc c4d4 793d
00000170: 27df 8ebe d6c9 72be f917 ccbc df1e f4bd
00000180: aa08 60be fd7b aabc 2d31 77bc f545 033c
00000190: f672 ca3d 52e4 8bbd a1d3 61bd f3b2 f53d
000001a0: 7cd5 b338 53ad 543c 037b 03be d69d d5bc
000001b0: d6f1 afbd 8088 5dbd 1923 613d 63df b63c
000001c0: 3aac 8d3d 038a f7bc af12 1a3e 066d b2bd
000001d0: 620a 37bf 2f52 4e3e d610 7c3e 7fef 123e
000001e0: 8a5e 5c3e 4e87 61bf 3102 213e 9a95 4d3f
000001f0: 159c 5a3f 6835 e4bd da61 93bf 69b6 59bf
00000200: 445b 6abf 0ceb 823e 5b03 90be f256 00be
00000210: 45f5 b9be f849 c23e 1230 45be 9de1 9bbe
00000220: 1dd9 e73e 4242 8e3e ba07 2cbd 0ae9 643e
00000230: c8f3 923e f75e 93be d664 71bf 1323 2fbf
00000240: 7531 c8be bdf8 a53b 2479 6bbe 4c89 44bd
00000250: 89c9 71bd 8684 efbe 3b33 ac3d 4af9 833d
00000260: dec2 ef3b f5bb fdbd c80e b13d c606 2dbd
00000270: 1728 9fbd 547c 29bb 303d ca3b 8122 27bd
00000280: 6c3c 933d a2f7 1cbd 666d fdbc 69b5 833c
00000290: 7288 163d 0171 83bc 2cea ba3d ceef 39bd
000002a0: 9e16 4e3d 52ab efbc 6504 4a3c a8bc ee3e
000002b0: 9894 28bf 557e a43e b781 d9be 8e0e 0c3e
000002c0: ca8e af3e d63a 9bbe d86c b3bd 6b0a b53c
000002d0: 6c60 91be 936d 60be 4623 11bf 020b 863e
000002e0: 9011 b13e 63b7 18be 3867 c93d 7209 16be
000002f0: f758 1b3f 1516 2a3f abf2 663f e5e1 47be
00000300: 2612 f13d 778c 92be 6608 3e3c 57e5 4abe
00000310: 1ea5 78bf a59b c03e 7fc5 683e 504f 9c3e
00000320: dc51 23be c09d 0cbf d546 ed3e 09d2 2dbf
00000330: 0a8e 233e 2a0f 23bf d16b 843f 7122 2d3f
00000340: 2d61 f83d f2b0 88bd fd7b ba3a e93d f33c
00000350: 35e1 32bd fb99 c8bd 6239 eb3d a4f0 a2bd
00000360: af3e acbb f1e9 363e cfcf 24bd cca8 583d
00000370: 9c0f 35bd 40a9 2fbd 5b62 d6bd bfb8 f23d
00000380: 61a3 69bb 6e53 76bc 33a9 983b 0a67 a83c
00000390: b5a6 e0be 0285 f0bb e7cf 7cbe 014a 2bbf
000003a0: fbfc 363f ce29 3f3c d699 973e f63b 64be
000003b0: a780 bc3d 6011 edbe 28cf a33e 2572 033f
000003c0: 12dc 35bf 8557 ef3c 7370 e83e 5e64 f33d
000003d0: 63b3 bbbe 4e84 b5be 7378 533e 79a3 b9bd
000003e0: 79c2 073f 4c98 043f 6505 553e cac6 c73d
000003f0: e5c3 123e 5cfa d83e dc57 383d 79a8 c43e

actor.0.bias f4 [512]
0.16995583 -0.33511823 0.14139219 0.14369601 -0.26115844 0.010264007 -0.1867883 -0.8898887
-0.13235381 -0.23092227 -0.060249366 -0.33166924 -0.5414151 -0.048810415 -0.004142977 -0.16552329
0.25446674 -0.14617588 -0.46743166 -0.27576834 -0.26242745 -0.089519486 0.014830216 -0.21462463
-0.27273726 -8.793531e-05 0.06533177 0.098581545 -0.010800963 0.35140482 0.11130409 0.033146784
-0.17361107 -0.12221953 -0.3942384 -0.28510496 -0.18136953 0.21952982 0.09033198 -0.32977474
0.021956878 0.03890747 -0.23796575 -0.5226987 -0.07827433 -0.07761656 -0.3286646 -0.15753935
-0.04670029 -0.18075527 0.25699466 0.22104958 0.19469497 -0.25687838 -0.22375162 -0.25880995
0.29534608 0.10924172 0.26003167 0.0063714124 -0.19138432 0.1867552 -0.42101803 -0.13674265
-0.081622794 -0.3767274 -0.33991417 -0.18019351 -0.21394016 -0.028354913 -0.22454049 -0.2897133
-0.034140654 -0.29548895 -0.5937118 -0.077132076 -0.52361804 0.19364078 0.12750588 -0.13512176
-0.17090328 -0.1996993 -0.117791325 -0.13011217 0.06689771 0.020221945 0.08662553 -0.74429274
-0.41432798 -0.3303229 -0.14114983 0.28884178 0.18389449 -0.26878682 -0.15211996 0.18190843
0.009661696 0.23930351 -0.071235426 -0.32645336 -0.3893097 0.28704345 0.004809723 0.33991334
-0.31257665 -0.24038231 -0.230528 -0.27078304 -0.70340115 -0.35905245 -0.08136181 -0.41221297
0.17530537 -0.23093207 -0.39259586 -0.52273345 -0.056374118 -0.23970044 -0.0051149456 0.040295936
0.19558135 -0.35788336 -0.19479729 0.07025582 -0.29058433 0.0002656931 -0.34994265 -0.040104423
0.007250937 -0.45179275 -0.31454173 0.20524499 -0.29537424 -0.2491368 -0.13339017 -0.070285484
-0.19791153 -0.088601135 -0.24670178 0.014735095 -0.2754058 -0.18650933 -0.028164001 0.06029004
-0.5362707 0.10016199 -0.23105046 -0.06420798 -0.09804635 -0.43011418 -0.6873668 -0.12931253
-0.39825645 -0.17519231 -0.19480534 0.07791158 -0.12879473 0.037093814 -0.114788644 -0.25449643
0.31183383 0.2679717 -0.31152332 0.06866554 -0.30226177 -0.5927723 -0.119448714 -0.0032314253
-0.06749018 -0.3029737 0.00937992 -0.25866112 -0.23800348 -0.11917823 -0.040918786 -0.036844622
-0.80915445 -0.20797272 -0.046928003 0.034661964 -0.6525253 -0.23424147 -0.010728484 0.18589701
0.10744218 0.109978996 0.18383916 -0.0790982 0.028798003 0.045512147 0.17808269 -0.042837862
-0.08414249 0.21654853 -0.19309598 -0.3380753 -0.3911809 -0.08937815 0.09078395 -0.048357878
-0.17704844 0.09793466 -0.23534875 0.24607268 -0.18475042 -0.61668634 -0.2517441 -0.400319
0.1312087 -0.3578479 0.15945049 0.07617434 -0.07951525 0.077381544 0.07716751 -0.11584966
-0.34645545 -0.52593464 0.16839395 0.17564213 -0.06525553 -0.026003769 -0.8229246 -0.34099764
-0.5329089 0.25622135 0.2501418 -0.29998037 -0.005978941 0.17175172 0.003753689 -0.027295457
0.26973826 -0.5330952 0.07000073 -0.49172583 -0.24405842 -0.32930312 -0.14102596 0.4333096
0.12456121 -0.25645423 0.41822216 -0.48056883 -0.27560738 0.061483666 0.074171595 0.066808075
0.00016086642 0.21959168 -0.24082746 -0.02469064 -0.2511363 0.05038104 0.17541598 0.060716175
00000000: e708 2e3e 9e94 abbe 1dc9 103e 0c25 133e
00000010: 8fb6 85be 5e2a 283c 6f45 3fbe bfcf 63bf
00000020: c287 07be e376 6cbe 0ac8 76bd 8dd0 a9be
00000030: 2e9a 0abf 6eed 47bd cfc1 87bb f07e 29be
00000040: 7749 823e 21af 15be 3453 efbe 8231 8dbe
00000050: e45c 86be fe55 b7bd 6ffa 723c 8fc6 5bbe
00000060: 38a4 8bbe e969 b8b8 aacc 853d 1fe5 c93d
00000070: 86f6 30bc 55eb b33e 66f3 e33d ecc4 073d
00000080: 1ac7 31be 3c4e fabd 9ed9 c9be 47f9 91be
00000090: efb8 39be 6dcc 603e f9ff b83d 3cd8 a8be
000000a0: e9de b33c 705d 1f3d 4bad 73be 95cf 05bf
000000b0: 4b4e a0bd 6ef5 9ebd ba46 a8be ff51 21be
000000c0: ce48 3fbd e917 39be ce94 833e d25a 623e
000000d0: 1e5e 473e 9085 83be 251f 65be bd82 84be
000000e0: 9a37 973e 1fba df3d df22 853e 48c7 d03b
000000f0: 40fa 43be c13c 3f3e ad8f d7be 4406 0cbe
00000100: da29 a7bd 6ae2 c0be 3b09 aebe a684 38be
00000110: 2113 5bbe 9048 e8bc f1ed 65be 4d55 94be
00000120: 12d7 0bbd 544a 97be 7ffd 17bf 6cf7 9dbd
00000130: d50b 06bf c549 463e e790 023e 5c5d 0abe
00000140: 4501 2fbe f97d 4cbe 943c f1bd 203c 05be
00000150: ab01 893d 7ea8 a53c ba68 b13d f889 3ebf
00000160: cc22 d4be 1520 a9be 9589 10be 12e3 933e
00000170: d64e 3c3e 6d9e 89be 56c5 1bbe 3446 3a3e
00000180: 174c 1e3c fb0b 753e e1e3 91bd e524 a7be
00000190: 9a53 c7be 5cf7 923e e19a 9d3b 1f09 ae3e
000001a0: 0c0a a0be c826 76be 880f 6cbe 13a4 8abe
000001b0: 1912 34bf b9d5 b7be 05a1 a6bd 940d d3be
000001c0: 4083 333e 7579 6cbe 5302 c9be dcd1 05bf
000001d0: 8ce8 66bd 0874 75be 469b a7bb 5a0d 253d
000001e0: 7a46 483e 7d3c b7be f178 47be 49e2 8f3d
000001f0: 78c7 94be b94c 8b39 af2b b3be 8944 24bd
00000200: 4599 ed3b 6151 e7be 9d0b a1be be2b 523e
00000210: 4b3b 97be b81d 7fbe 6f97 08be d6f1 8fbd
00000220: 52a9 4abe 8374 b5bd 649f 7cbe 786b 713c
00000230: fd01 8dbe 4dfc 3ebe 31b8 e6bc b0f2 763d
00000240: 0949 09bf bb21 cd3d 7e98 6cbe 797f 83bd
00000250: 86cc c8bd ed37 dcbe 45f7 2fbf 816a 04be
00000260: 45e8 cbbe 9d65 33be 0d7b 47be 1b90 9f3d
00000270: c4e2 03be afef 173d 4f16 ebbd 5b4d 82be
00000280: afa8 9f3e 9633 893e fc7f 9fbe 85a0 8c3d
00000290: 0ec2 9abe edbf 17bf 87a1 f4bd 52c6 53bb
000002a0: 4b38 8abd 5e1f 9bbe 3cae 193c 3b6f 84be
000002b0: 2fb7 73be b713 f4bd 759a 27bd 63ea 16bd
000002c0: bf24 4fbf cdf6 54be 9437 40bd b4f9 0d3d
000002d0: e60b 27bf ffdc 6fbe 86c6 2fbc c95b 3e3e
000002e0: a50a dc3d ab3c e13d 5540 3c3e 3dfe a1bd
000002f0: cae9 eb3c f26a 3a3d 4f5b 363e c176 2fbd
00000300: e652 acbd e6be 5d3e f4ba 45be 3518 adbe
00000310: dd48 c8be e40b b7bd f0ec b93d e912 46bd
00000320: 304c 35be f891 c83d 43ff 70be 7afa 7b3e
00000330: 372f 3dbe 28df 1dbf 9ae4 80be 9df6 ccbe
00000340: 935b 063e d737 b7be fd46 233e 4b01 9c3d
00000350: e4d8 a2bd 377a 9e3d 000a 9e3d 9642 edbd
00000360: 9c62 b1be a7a3 06bf 776f 2c3e 88db 333e
00000370: b1a4 85bd db05 d5bc 30ab 52bf 3e97 aebe
00000380: b86c 08bf 722f 833e 9612 803e 0797 99be
00000390: feea c3bb afdf 2f3e 7300 763b b99a dfbc
000003a0: 221b 8a3e ed78 08bf 8b5c 8f3d 7dc3 fbbe
000003b0: 73ea 79be 6b9a a8be 1c69 10be c2da dd3e
000003c0: f319 ff3d f84d 83be 3721 d63e 1e0d f6be
000003d0: 691c 8dbe 4cd6 7b3d 47e7 973d acd2 883d
000003e0: 40ae 2839 a4dc 603e 799b 76be 0644 cabc
000003f0: f094 80be 595c 4e3d 3fa0 333e 86b1 783d

actor.2.weight f4 [256, 512]
-0.0115374075 -0.12108796 0.12786296 -0.3280615 -0.10327431 -0.02296735 0.13146852 0.016597437
-0.060502704 -0.39465854 0.05832602 0.011829332 0.19587083 -0.045966968 0.049999937 -0.13835537
0.063128255 0.09825301 0.1288316 -0.09656921 -0.037568398 -0.017783336 0.07426812 0.038607452
-0.07328982 -0.05591038 0.26200202 -0.1701291 -0.08921516 0.13221468 0.04764113 0.010307754
-0.0063337134 -0.037615053 -0.13895555 0.017387366 -0.2260675 -0.14207578 0.08608925 -0.039625473
0.06573441 -0.012324872 0.08063686 0.09543105 0.109905854 0.050988905 -0.23687647 0.21225038
-0.09083074 0.09569891 0.10995349 0.13047405 -0.012348548 0.31977805 0.12144856 -0.15097837
-0.011278537 0.08683044 -0.22632629 0.12355842 0.1422034 -0.39365536 0.23273735 0.16848649
0.050995346 0.102435246 0.017406708 0.0045121796 0.031302433 0.06525396 -0.038471 0.15709887
-0.09626847 -0.08499076 -0.0060142507 -0.1430786 0.0727759 0.18486603 0.04872559 -0.040986527
0.076890215 -0.07740436 -0.030309727 0.24173827 0.028908873 -0.1666332 0.4104696 0.08005783
-0.09547523 0.03206987 -0.05038685 -0.01241497 0.14681499 -0.07124093 0.12242797 0.20773888
0.013655573 -0.04145871 -0.0278232 0.1283376 0.08265945 -0.058361914 0.1155368 -0.12926859
0.024743007 0.20511036 -0.04201976 -0.064686134 -0.04647073 -0.015002652 -0.07440666 0.11733423
0.09990035 -0.20293154 -0.05645815 -0.008900203 0.051101133 0.003928591 -0.016605163 0.27073207
0.06201591 -0.03914132 0.09663387 -0.19571213 -0.020485053 -0.054341685 0.15395479 -0.1204773
0.15688309 -0.11759622 0.11302193 0.008446003 -0.23437455 0.21493739 -0.059136305 -0.26455477
-0.2246594 0.19771782 -0.09397561 0.13411647 0.102463454 -0.15879713 -0.108889185 0.17255634
0.014249515 -0.047829766 -0.3336442 0.1933159 -0.010925587 0.16637528 0.103356846 -0.07716782
0.03853314 -0.12725519 -0.32709923 -0.025966309 -0.14262526 0.022713423 -0.2504056 0.32977763
-0.14109764 -0.010571542 0.040096357 0.051360406 0.05729511 0.0070107467 0.15452002 0.11124552
-0.08654299 0.038857974 -0.015161351 0.0247206 -0.024056805 -0.07981188 0.110433556 -0.060163673
0.056873478 0.22673306 -0.26603696 0.28024104 0.22567709 -0.044300962 -0.19710559 -0.2162043
-0.20718703 0.16637222 0.0025386484 -0.07635553 -0.129291 0.067541175 -0.20319843 0.07049107
-0.20657852 0.0028774193 -0.14278118 0.10952034 -0.11798957 0.049246456 -0.08749516 -0.040909007
0.12446828 -0.1311978 0.142501 -0.12858602 0.23072477 0.15689087 -0.038485143 0.21395129
0.011555383 0.05311852 -0.09754452 0.15173945 -0.022530995 0.35303774 0.023677722 -0.08231699
-0.1478222 0.163546 -0.055157848 0.3095286 -0.1620983 0.047468074 0.05457243 0.11686018
0.056916103 0.1379024 0.19694372 0.16010606 -0.07734708 -0.08419218 0.102893844 -0.0051236614
0.020498492 0.17334837 -0.049124178 -0.13591309 0.15967546 -0.2500504 -0.03384758 -0.23643129
-0.11935971 0.08916764 0.071170725 0.11405368 -0.051431507 0.03366912 -0.14671022 -0.37998256
0.09172362 -0.22710927 0.09200962 0.1117904 0.024382923 -0.03199387 0.17182167 -0.1354074
00000000: 6507 3dbc f7fc f7bd 82ee 023e adf7 a7be
00000010: 7b81 d3bd 0626 bcbc af9f 063e 59f7 873c
00000020: afd1 77bd af10 cabe 44e7 6e3d d1cf 413c
00000030: 5d92 483e dc47 3cbd bccc 4c3d 08ad 0dbe
00000040: 6349 813d e038 c93d 6eec 033e 14c6 c5bd
00000050: 52e1 19bd 5cae 91bc e219 983d d922 1e3d
00000060: f918 96bd 4802 65bd 2125 863e 5336 2ebe
00000070: 70b6 b6bd 4963 073e 5823 433d dbe1 283c
00000080: 0a8b cfbb 3e12 1abd 5d4a 0ebe f36f 8e3c
00000090: 3d7e 67be 507c 11be 904f b03d 524e 22bd
000000a0: c39f 863d 43ee 49bc f024 a53d 5b71 c33d
000000b0: 5216 e13d bed9 503d bf8f 72be 2a58 593e
000000c0: 7805 babd cafd c33d 4c2f e13d fd9a 053e
000000d0: 9051 4abc f3b9 a33e 06ba f83d 139a 1abe
000000e0: 9dc9 38bc 28d4 b13d 14c2 67be 320c fd3d
000000f0: c59d 113e 328d c9be b352 6e3e b987 2c3e
00000100: 7fe0 503d 92c9 d13d 8398 8e3c e8da 933b
00000110: fb36 003d dea3 853d c493 1dbd 87de 203e
00000120: 6728 c5bd a30f aebd 3113 c5bb 3283 12be
00000130: 880b 953d 854d 3d3e 7c94 473d 7de1 27bd
00000140: 9e78 9d3d 2d86 9ebd 1b4c f8bc 3d8a 773e
00000150: 4dd2 ec3c e5a1 2abe 1229 d23e 5cf5 a33d
00000160: 8488 c3bd b25b 033d 7162 4ebd 2968 4bbc
00000170: ab56 163e c4e6 91bd 84bb fa3d 80b9 543e
00000180: a0bb 5f3c 9cd0 29bd 7bed e3bc ef6a 033e
00000190: 5c49 a93d e70c 6fbd 8f9e ec3d fc5e 04be
000001a0: d9b1 ca3c 7308 523e e91c 2cbd 2a7a 84bd
000001b0: 1858 3ebd afcd 75bc 8562 98bd ee4c f03d
000001c0: 8e98 cc3d 49cd 4fbe a940 67bd 28d2 11bc
000001d0: 6c4f 513d 69bb 803b 8d07 88bc 659d 8a3e
000001e0: 6504 7e3d a652 20bd fae7 c53d c368 48be
000001f0: 45d0 a7bc 6395 5ebd 53a6 1d3e cdbc f6bd
00000200: f6a5 203e 49d6 f0bd 0b78 e73d 1b61 0a3c
00000210: e2ff 6fbe 8c18 5c3e e938 72bd b973 87be
00000220: 1d0d 66be 8a76 4a3e 4976 c0bd d455 093e
00000230: 5cd8 d13d b79b 22be 4b01 dfbd 9cb2 303e
00000240: cc76 693c 25e9 43bd 6ad3 aabe 9af4 453e
00000250: 3c01 33bc 485e 2a3e c1ac d33d 290a 9ebd
00000260: edd4 1d3d 2f4f 02be 8d79 a7be 4cb7 d4bc
00000270: 5b0c 12be 8011 ba3c 2a35 80be 9dd8 a83e
00000280: e67b 10be 4334 2dbc 143c 243d 4a5f 523d
00000290: 47ae 6a3d 68ba e53b 7f3a 1e3e b1d4 e33d
000002a0: 733d b1bd 8a29 1f3d 5167 78bc db82 ca3c
000002b0: c712 c5bc 6974 a3bd fd2a e23d 2f6e 76bd
000002c0: 2af4 683d b62c 683e ff35 88be c17b 8f3e
000002d0: e517 673e ed74 35bd 0cd6 49be a964 5dbe
000002e0: d628 54be 7b5d 2a3e 745f 263b 4a60 9cbd
000002f0: dc64 04be 0753 8a3d 4013 50be 9f5d 903d
00000300: 5289 53be 1693 3c3b 3b35 12be 334c e03d
00000310: 84a4 f1bd a7b6 493d aa30 b3bd 3490 27bd
00000320: 3ae9 fe3d b758 06be c8eb 113e 0eac 03be
00000330: 1d43 6c3e 00a8 203e 99a2 1dbd 0c16 5b3e
00000340: ca52 3d3c ce92 593d 6cc5 c7bd 9661 1b3e
00000350: ec92 b8bc 5dc1 b43e c8f7 c13c cf95 a8bd
00000360: b45e 17be 9a78 273e 32ed 61bd 887a 9e3e
00000370: 19fd 25be e26d 423d 5787 5f3d 6454 ef3d
00000380: dc20 693d 4936 0d3e 9dab 493e d8f2 233e
00000390: 2568 9ebd f36c acbd 02ba d23d 63e4 a7bb
000003a0: 74ec a73c 3c82 313e 6f36 49bd cd2c 0bbe
000003b0: f781 233e 9b06 80be c3a3 0abd 0b1b 72be
000003c0: dd72 f4bd 869d b63d f5c1 913d fa94 e93d
000003d0: d8a9 52bd a2e8 093d 343b 16be 138d c2be
000003e0: 98d9 bb3d 558f 68be 8a6f bc3d 5ef2 e43d
000003f0: b2be c73c 010c 03bd 05f2 2f3e 3da8 0abe

actor.2.bias f4 [256]
-0.14265391 -0.21069688 -0.20372863 -0.1325183 -0.13709755 -0.27572638 -0.42808235 -0.24666527
-0.18092847 -0.46571422 -0.28024006 -0.16514124 -0.31788293 -0.22372949 -0.06813914 -0.18564579
-0.0076034474 -0.0662578 -0.017463489 -0.10684085 0.06874885 -0.14307666 -0.103828244 -0.14828707
-0.28280875 0.017640552 -0.0040576668 -0.18896644 -0.18363525 -0.11088858 -0.18242423 -0.14318253
-0.29515755 -0.1162608 -0.09784119 -0.44730365 -0.039899375 -0.14388102 -0.28664115 0.014762314
-0.40016058 -0.35965753 -0.1714691 -0.3419941 -0.1362174 -0.25201952 -0.04030461 -0.061974928
-0.18947108 -0.0790969 -0.07488703 -0.23780073 -0.29607752 -0.15380062 -0.6167916 -0.06124736
-0.0556401 -0.13578576 -0.15916438 -0.3440241 0.109134115 0.24484177 -0.09300706 0.038347475
-0.47290555 -0.36777443 -0.21539794 -0.20399861 -0.24645896 -0.2126731 -0.025770767 -0.4262033
-0.21667369 -0.5954607 -0.024172109 0.06313091 -0.018817443 -0.1603973 -0.13981028 -0.21530727
-0.18077867 0.2159404 -0.2675718 -0.12677146 -0.2850582 0.06366453 -0.4067521 -0.16131324
0.023172958 -0.45025834 -0.42116606 -0.5544974 -0.3050994 -0.10285839 -0.52639484 -0.07382886
-0.44612718 -0.18379124 0.12556931 -0.090928115 -0.1752751 -0.3038515 -0.35250178 -0.4764804
-0.22339067 -0.08604093 -0.014213181 -0.0116201285 -0.13498615 -0.2457148 -0.362372 0.036531564
-0.05245872 -0.018860772 0.016875207 -0.23709331 -0.2511857 -0.33249474 -0.33639446 -0.25560376
-0.31185874 -0.48775014 -0.20266318 -0.13732769 -0.12830915 0.069720365 -0.2678031 -0.1958132
-0.058518704 -0.22411202 -0.18259817 -0.1300184 -0.0798766 -0.17598926 -0.6919028 -0.5280298
-0.3422209 -0.13985644 -0.13408263 -0.098448545 -0.37552702 -0.17819977 -0.1470772 -0.26264408
-0.42918926 -0.21118131 -0.20856789 -0.31677133 -0.68402624 0.25070718 -0.37851825 -0.19003186
-0.5070331 0.051324133 -0.02901466 0.09512613 0.056065645 -0.16029774 -0.24400467 -0.25545058
0.092978 -0.14126186 -0.3298715 -0.7233546 -0.16895051 -0.21965091 -0.4106493 -0.36505085
-0.13016921 -0.36180055 -0.18360117 -0.030349117 -0.2139551 -0.63212115 -0.11610789 -0.40769535
-0.61712563 -0.25770134 -0.20905638 -0.30483553 -0.3512846 -0.44357046 0.002766278 -0.2859324
-0.09906473 -0.11696861 -0.591751 -0.6730594 -0.17794251 -0.26499802 -0.010182149 -0.12243862
-0.29928035 -0.21831742 -0.21315086 -0.61368585 -0.022599667 -0.46336907 -0.217533 -0.10720341
-0.16739346 -0.057294663 -0.2026435 -0.17700185 -0.4702766 -0.22400746 -0.04972112 -0.6210107
-0.09445569 -0.42840397 -0.07593027 -0.43197367 -0.33779445 0.08965517 -0.20907736 -0.04315349
-0.4089847 -0.3499371 -0.31976032 -0.2406933 -0.24560547 -0.33241218 0.00051489007 0.1361582
-0.026949907 -0.42471388 -0.102017194 -0.094201334 -0.32850686 -0.2850053 0.07453143 -0.2223849
-0.35957432 -0.09149167 -0.17749092 -0.042922188 0.13060077 -0.20300233 -0.28691605 -0.22315335
-0.23779736 -0.1545042 -0.34050357 -0.005233445 -0.30611485 -0.18478069 -0.06479531 -0.4144798
-0.1816817 -0.14576592 -0.35837933 -0.3476971 -0.57630247 -0.20717818 0.14298461 -0.2376428
00000000: de13 12be ecc0 57be 3d9e 50be e1b2 07be
00000010: 4d63 0cbe 022c 8dbe 9c2d dbbe d295 7cbe
00000020: 5045 39be 1872 eebe a07b 8fbe c91a 29be
00000030: 8dc1 a2be 5819 65be 898c 8bbd ee19 3ebe
00000040: 5726 f9bb 2bb2 87bd 970f 8fbc 60cf dabd
00000050: 32cc 8c3d b082 12be e7a3 d4bd 91d8 17be
00000060: 4fcc 90be eb82 903c 2df6 84bb 6b80 41be
00000070: e10a 3cbe 8d19 e3bd 6bcd 3abe 719e 12be
00000080: e41e 97be 241a eebd f660 c8bd fc04 e5be
00000090: 876d 23bd 8c55 13be a1c2 92be a2dd 713c
000000a0: d9e1 ccbe 0825 b8be 9995 2fbe da19 afbe
000000b0: 937c 0bbe b408 81be 7216 25bd 6cd9 7dbd
000000c0: b504 42be 8efd a1bd 5f5e 99bd 0982 73be
000000d0: 7997 97be e97d 1dbe 0ee6 1dbf 83de 7abd
000000e0: e0e6 63bd 6c0b 0bbe fdfb 22be ed23 b0be
000000f0: b581 df3d cdb7 7a3e 7c7a bebd 3e12 1d3d
00000100: ad20 f2be ee4c bcbe 4791 5cbe 03e5 50be
00000110: bd5f 7cbe fac6 59be 371d d3bc 5237 dabe
00000120: b5df 5dbe 1d70 18bf 9604 c6bc c74a 813d
00000130: 0a27 9abc 313f 24be 6d2a 0fbe 8279 5cbe
00000140: 0b1e 39be 7b1f 5d3e 2cff 88be 61d0 01be
00000150: 26f3 91be 8d62 823d d041 d0be 4c2f 25be
00000160: 37d5 bd3c 4388 e6be 14a3 d7be 8bf3 0dbf
00000170: fd35 9cbe 6ba7 d2bd d0c1 06bf 9633 97bd
00000180: c86a e4be c533 3cbe 3e95 003e 8538 babd
00000190: 517b 33be 6c92 9bbe 1d7b b4be 3df5 f3be
000001a0: 86c0 64be 3a36 b0bd 67de 68bc 5a62 3ebc
000001b0: cf39 0abe a99c 7bbe d388 b9be 1fa2 153d
000001c0: f4de 56bd e881 9abc e03d 8a3c 97c8 72be
000001d0: 699b 80be c03c aabe e53b acbe 7fde 82be
000001e0: f3ab 9fbe 63ba f9be f086 4fbe a19f 0cbe
000001f0: 7963 03be 8dc9 8e3d 7d1d 89be 4183 48be
00000200: 4fb1 6fbd 9f7d 65be 04fb 3abe 8b23 05be
00000210: 5896 a3bd 8736 34be 8b20 31bf f62c 07bf
00000220: 9437 afbe 8736 0fbe f54c 09be 649f c9bd
00000230: 1445 c0be 007a 36be 689b 16be 4979 86be
00000240: b2be dbbe ea3f 58be d292 55be da2f a2be
00000250: 581c 2fbf b15c 803e 25cd c1be b697 42be
00000260: eccc 01bf 4139 523d 27b0 edbc 7dd1 c23d
00000270: 17a5 653d 1725 24be 5cdc 79be 6bca 82be
00000280: 406b be3d f3a6 10be ebe4 a8be c42d 39bf
00000290: 5d01 2dbe 2bec 60be a040 d2be f2e7 babe
000002a0: 144b 05be ec3d b9be f201 3cbe b69e f8bc
000002b0: 0c17 5bbe b1d2 21bf f9c9 edbd 72bd d0be
000002c0: f2fb 1dbf 6ef1 83be e012 56be 6713 9cbe
000002d0: 93db b3be ab1b e3be 724a 353b bb65 92be
000002e0: 73e2 cabd 3d8d efbd fe7c 17bf 9f4d 2cbf
000002f0: 9036 36be d2ad 87be 07d3 26bc 19c1 fabd
00000300: 463b 99be 9a8e 5fbe 3844 5abe 841a 1dbf
00000310: f022 b9bc b63e edbe f9c0 5ebe 768d dbbd
00000320: 3169 2bbe cfad 6abd c781 4fbe f93f 35be
00000330: 18c8 f0be 3662 65be 60a8 4bbd 8ffa 1ebf
00000340: fc71 c1bd c457 dbbe 5481 9bbd a72b ddbe
00000350: 65f3 acbe 219d b73d 6018 56be b7c1 30bd
00000360: 7166 d1be f52a b3be a0b7 a3be 4e78 76be
00000370: 0080 7bbe ee31 aabe b0f9 063a 0e6d 0b3e
00000380: 0dc6 dcbc 1974 d9be 64ee d0bd a1ec c0bd
00000390: 0d32 a8be 37ec 91be efa3 983d deb8 63be
000003a0: 201a b8be fc5f bbbd 2ec0 35be 2dcf 2fbd
000003b0: 35bc 053e d8df 4fbe a9e6 92be 5082 64be
000003c0: 2781 73be 5936 1ebe 7c56 aebe 527d abbb
000003d0: 16bb 9cbe 2637 3dbe 67b3 84bd b236 d4be
000003e0: c40a 3abe a943 15be 7f7d b7be 5b05 b2be
000003f0: 8f88 13bf 8426 54be 8f6a 123e a258 73be

actor.4.weight f4 [128, 256]
-0.15939496 -0.027049467 0.29321545 -0.14292002 -0.009664136 0.06989951 0.029827664 -0.07489124
-0.045593906 -0.035038218 -0.20413768 -0.22409111 -0.031038472 -0.02620072 -0.16274814 -0.30452058
-0.34670144 -0.16811651 0.036394745 0.09246858 -0.30861658 -0.20967755 -0.24783061 -0.073341444
0.38684714 -0.032161314 -0.075259835 0.08937854 -0.019573195 -0.21075553 0.12838468 -0.10056842
-0.04755163 -0.027369434 0.12328045 0.05133333 0.2520041 -0.21389389 0.23364498 -0.11540836
0.266301 0.256982 0.029769015 0.11505433 -0.14110033 0.15153436 -0.013041452 0.028225414
-0.09957068 -0.32495368 -0.29323956 0.3761057 -0.05725187 -0.11933917 0.07393667 -0.09747674
-0.32507524 -0.12648477 -0.032214683 -0.21974967 -0.13507003 -0.16294895 -0.1142648 0.071758
0.0015438712 0.14875686 0.16647957 -0.20470764 0.117541745 -0.047877572 -0.14486703 -0.009921157
-0.20030761 -0.013542748 -0.13286866 -0.17362416 -0.267015 0.13106166 0.122093074 0.03999338
0.06953177 -0.16323715 -0.35221672 -0.00462003 0.06920583 -0.20838849 0.40319288 0.04305071
0.072661325 -0.007415205 0.20486026 0.09873793 0.3081544 0.10194294 -0.011141049 0.047907297
-0.09438919 -0.46472853 -0.32864833 0.13311303 -0.4417977 -0.30313724 -0.14491487 0.0798133
-0.041863706 0.08815476 0.1416918 -0.22784409 -0.5455053 0.050663605 -0.12640779 0.20734912
-0.025698721 0.021396836 -0.15270399 -0.029484192 -0.114002265 0.031192904 -0.27487975 0.010448692
-0.2816442 -0.06776306 -0.1438388 0.08974525 0.07079998 -0.2345831 0.12070754 -0.117533095
0.015389735 -0.22806953 -0.11651306 -0.192479 -0.06934192 -0.059870902 0.102595486 0.050882474
-0.0076443437 0.24754858 -0.0629812 -0.028296914 0.036379043 -0.032034997 0.053830016 0.10380419
-0.06463147 -0.38833523 -0.2754847 -0.19383444 -0.0008080686 -0.13282406 0.0905916 -0.059874184
0.17735986 0.020751834 0.10298565 0.08099979 -0.35737398 0.028929656 0.0413179 0.11598849
-0.07689321 -0.27803805 -0.030466009 -0.054408543 0.042390373 -0.31577832 -0.21591812 0.006349447
0.009018671 -0.005087027 -0.04526715 -0.5479114 0.0021372493 0.109614156 -0.04197472 -0.16288538
0.027773526 -0.16531552 -0.021371977 0.07136256 -0.35382736 0.18122889 -0.027319105 0.02530938
0.10839014 -0.26188666 0.15531868 -0.082949154 -0.027087588 0.057076566 0.12859406 -0.028669257
-0.1091814 -0.20019472 -0.11766207 0.100108765 -0.07601448 0.1610806 -0.054955564 -0.121367805
0.198316 -0.37933245 -0.2700073 -0.024417978 0.08888026 0.2119098 -0.08478702 0.07685635
0.126403 -0.0038241374 -0.40998837 0.15168892 0.03353491 -0.019983394 0.0058392417 -0.3170927
0.19719161 0.118129134 0.3057167 -0.06180776 0.1424615 -0.11523566 -0.12395747 0.10841954
0.15438691 0.15874128 -0.13060087 -0.12434081 0.28082553 -0.08735868 0.0276702 -0.14028725
0.2933277 -0.08935315 -0.02830864 -0.01231192 -0.3208212 0.019867774 -0.2513889 -0.061424408
0.28016827 -0.16622004 -0.09862878 0.46377105 0.18038327 0.044399735 0.1390628 -0.24961555
-0.049930207 0.20613493 0.19601741 -0.34648904 0.12446166 -0.04814787 -0.15790345 0.12749282
00000000: 6f38 23be d896 ddbc 5620 963e a059 12be
00000010: 5356 1ebc 7927 8f3d 2559 f43c 9460 99bd
00000020: adc0 3abd 3c84 0fbd 7809 51be 2478 65be
00000030: 6544 febc e4a2 d6bc 73a7 26be 1fea 9bbe
00000040: da82 b1be bc26 2cbe a812 153d 2b60 bd3d
00000050: fe02 9ebe b6b5 56be 4fc7 7dbe 0a34 96bd
00000060: d410 c63e 95bb 03bd d421 9abd 190c b73d
00000070: f757 a0bc 4cd0 57be 4677 033e d1f6 cdbd
00000080: 7fc5 42bd dd35 e0bc 767a fc3d e642 523d
00000090: ae06 813e 0007 5bbe a140 6f3e 385b ecbd
000000a0: 9b58 883e 2593 833e 26de f33c 9ba1 eb3d
000000b0: 9b7c 10be d32b 1b3e d0ab 55bc fc38 e73c
000000c0: b6eb cbbd 5460 a6be 7f23 96be ed90 c03e
000000d0: f080 6abd 1868 f4bd 1c6c 973d e3a1 c7bd
000000e0: 4370 a6be 3985 01be 8bf3 03bd 0f06 61be
000000f0: cc4f 0abe 17dc 26be aa03 eabd dcf5 923d
00000100: b95b ca3a b853 183e 9f79 2a3e e19e 51be
00000110: bab9 f03d 461b 44bd 0658 14be 598c 22bc
00000120: 701d 4dbe 67e2 5dbc b90e 08be 88ca 31be
00000130: 31b6 88be 0735 063e ef0b fa3d 19d0 233d
00000140: ac66 8e3d a427 27be c055 b4be 9f63 97bb
00000150: c9bb 8d3d cb63 55be 4c6f ce3e f155 303d
00000160: 76cf 943d 3ffb f2bb e3c6 513e 1d37 ca3d
00000170: 6ac6 9d3e 76c7 d03d f288 36bc 713a 443d
00000180: 1f4f c1bd e6f0 edbe 9844 a8be c84e 083e
00000190: 4f33 e2be ce34 9bbe 9064 14be 2875 a33d
000001a0: 4779 2bbd 7c8a b43d a817 113e f64f 69be
000001b0: 3ca6 0bbf a484 4f3d 0b71 01be 5453 543e
000001c0: 2086 d2bc 6b48 af3c 6f5e 1cbe d588 f1bc
000001d0: 057a e9bd 4388 ff3c 0abd 8cbe fe30 2b3c
000001e0: ab33 90be 5cc7 8abd 7a4a 13be 5ccc b73d
000001f0: 94ff 903d 8d36 70be 8435 f73d 31b5 f0bd
00000200: 3a25 7c3c 0f8b 69be 669e eebd 3719 45be
00000210: 2303 8ebd 313b 75bd 951d d23d 246a 503d
00000220: 677d fabb 607d 7d3e 4afc 80bd eece e7bc
00000230: 3102 153d 2137 03bd dd7c 5c3d 4b97 d43d
00000240: 815d 84bd e0d3 c6be 550c 8dbe 897c 46be
00000250: 91d4 53ba 0803 08be 1788 b93d a23e 75bd
00000260: d39d 353e c0ff a93c 24ea d23d 38e3 a53d
00000270: b9f9 b6be e3fd ec3c f53c 293d 608b ed3d
00000280: 307a 9dbd 015b 8ebe da93 f9bc 7edb 5ebd
00000290: 87a1 2d3d b2ad a1be a419 5dbe 060f d03b
000002a0: 0cc3 133c 13b1 a6bb 0c6a 39bd ec43 0cbf
000002b0: 1811 0c3b 637d e03d afed 2bbd 6dcb 26be
000002c0: 4e85 e33c 7948 29be 4914 afbc 8926 923d
000002d0: dc28 b5be 1194 393e 51cc dfbc 9e55 cf3c
000002e0: a6fb dd3d 0216 86be dc0b 1f3e 3fe1 a9bd
000002f0: cae6 ddbc 1ec9 693d 29ae 033e cadb eabc
00000300: 7f9a dfbd d8ff 4cbe d0f8 f0bd d305 cd3d
00000310: 7bad 9bbd 50f2 243e 1619 61bd af8f f8bd
00000320: 5913 4b3e dd37 c2be 663e 8abe 3608 c8bc
00000330: db06 b63d e2fe 583e d1a4 adbd dd66 9d3d
00000340: ca6f 013e 619e 7abb ffe9 d1be 5754 1b3e
00000350: e75b 093d 37b4 a3bc 1c57 bf3b f959 a2be
00000360: 99ec 493e b0ed f13d e686 9c3e 222a 7dbd
00000370: 6de1 113e ac00 ecbd 6add fdbd 100b de3d
00000380: 9a17 1e3e 138d 223e 3cbc 05be 65a6 febd
00000390: 5dc8 8f3e 1ce9 b2bd 9eac e23c 76a7 0fbe
000003a0: 0c2f 963e c9fe b6bd 85e7 e7bc efb7 49bc
000003b0: ad42 a4be bec1 a23c 0cb6 80be 2998 7bbd
000003c0: 3772 8f3e 9635 2abe e3fd c9bd 6673 ed3e
000003d0: 64b6 383e 7fdc 353d 7b66 0e3e 389b 7fbe
000003e0: 9e83 4cbd 0915 533e cab8 483e 0367 b1be
000003f0: c1e5 fe3d b336 45bd 71b1 21be 7a8d 023e

actor.4.bias f4 [128]
-0.16508906 -0.3770969 -0.011959291 -0.07799425 -0.26175776 -0.1663578 -0.104211986 -0.20872669
-0.52673453 -0.0958352 -0.20788443 -0.18132417 -0.25462598 -0.13166821 -0.36947912 -0.21447434
-0.22422045 -0.41604346 -0.184804 -0.10420683 -0.35853484 -0.1924803 -0.312114 -0.080749735
-0.05933029 -0.3439536 -0.22292548 -0.18536946 -0.26691553 -0.19400471 -0.43795493 -0.2765765
-0.08121503 -0.27670085 -0.21847565 -0.25130597 -0.15259168 -0.084518604 -0.16160163 -0.18060184
-0.20780101 -0.14685328 -0.013765649 -0.23381212 0.0010931062 -0.18806566 -0.22781864 -0.18480216
-0.53167474 -0.27685735 -0.14941965 -0.050858304 -0.25625685 -0.049404588 -0.16781628 -0.20108077
-0.4365715 -0.23578547 -0.16015719 -0.14839643 0.012170263 -0.10938551 -0.36995316 -0.06009116
-0.09757836 -0.21802701 -0.11627786 -0.110788874 -0.17840557 -0.14123408 -0.20377281 -0.1618918
0.11860152 -0.17693838 -0.39657164 -0.08808853 -0.24564542 -0.14645156 -0.25319928 -0.14595072
-0.21691076 -0.27030915 -0.30227232 -0.1416366 -0.099627614 0.13994528 -0.14532433 -0.25791758
-0.19174056 -0.19978997 -0.48610833 -0.14723995 -0.16366407 -0.3953048 -0.13011312 0.024425823
-0.17594863 -0.14469597 -0.052782115 -0.06415634 -0.18400684 -0.37113225 -0.13117391 -0.109183736
-0.32890773 -0.10888411 -0.15516517 -0.04905292 -0.46697342 -0.26607686 -0.20163429 -0.11302148
-0.13357757 -0.3013597 -0.006984543 -0.15512621 -0.19768167 -0.21288209 -0.14100792 -0.3578129
-0.17010573 -0.28166607 -0.5158258 -0.20349397 -0.20278381 -0.25118628 -0.13176732 -0.15037169
00000000: 1b0d 29be d812 c1be e7f0 43bc 73bb 9fbd
00000010: 1d05 86be b359 2abe 186d d5bd 73bc 55be
00000020: 13d8 06bf 3f45 c4bd a8df 54be 0bad 39be
00000030: 565e 82be 08d4 06be 5e2c bdbe 299f 5bbe
00000040: 0c9a 65be a603 d5be 433d 3dbe 646a d5bd
00000050: e191 b7be 8e19 45be 68cd 9fbe 1e60 a5bd
00000060: 5104 73bd b01a b0be 9446 64be 7ed1 3dbe
00000070: 27a9 88be 2ca9 46be a13b e0be 6f9b 8dbe
00000080: 1154 a6bd bcab 8dbe 15b8 5fbe 2dab 80be
00000090: fe40 1cbe 1718 adbd e67a 25be b0ef 38be
000000a0: cac9 54be b560 16be 5189 61bc 726c 6fbe
000000b0: 8f46 8f3a 4994 40be 4a49 69be c73c 3dbe
000000c0: d61b 08bf 3fc0 8dbe 7701 19be cc50 50bd
000000d0: 1934 83be 775c 4abd 08d8 2bbe 1ee8 4dbe
000000e0: 4d86 dfbe bf71 71be 3f00 24be 3cf5 17be
000000f0: c865 473c 8305 e0bd 806a bdbe 2622 76bd
00000100: 2ad7 c7bd 7942 5fbe 1623 eebd 47e5 e2bd
00000110: f3af 36be ab9f 10be d2a9 50be f7c6 25be
00000120: 5be5 f23d 562f 35be 700b cbbe c267 b4bd
00000130: 798a 7bbe 66f7 15be 56a3 81be 1b74 15be
00000140: db1d 5ebe f665 8abe 70c3 9abe 2f09 11be
00000150: 9009 ccbd d14d 0f3e e7cf 14be c60d 84be
00000160: a357 44be be95 4cbe 31e3 f8be 12c6 16be
00000170: 8e97 27be 6465 cabe 603c 05be aa18 c83c
00000180: e12b 34be 2e2b 14be 0f32 58bd 6664 83bd
00000190: 4a6c 3cbe 0c05 bebe 7452 06be b99b dfbd
000001a0: 9866 a8be a2fe debd 9ee3 1ebe b7eb 48bd
000001b0: 2417 efbe 3a3b 88be 3879 4ebe ce77 e7bd
000001c0: 8fc8 08be d24b 9abe 98de e4bb 68d9 1ebe
000001d0: 106d 4abe c3fd 59be 6164 10be 4133 b7be
000001e0: 3230 2ebe 8936 90be 290d 04bf b960 50be
000001f0: 8fa6 4fbe 7d9b 80be 03ee 06be 09fb 19be

actor.6.weight f4 [16, 128]
0.036010887 0.020306759 -0.00080913526 -0.016640084 0.041352876 -0.082607664 0.03940815 -0.023090566
-0.0989969 0.04458682 -0.0062305694 0.020901801 0.10141862 0.022528017 -0.023148306 0.0062282695
0.056807745 0.11835486 0.0649743 0.008036258 -0.020828318 0.005286177 -0.056966323 -0.008266293
0.131026 -0.023622995 -0.033390682 -0.08973316 0.056296986 -0.030284029 -0.103118755 0.058633056
-0.05260602 0.0112853125 0.069163896 0.011230528 0.0041019395 0.015856696 0.0016181496 -0.097684704
0.044010945 -0.041618295 0.0337018 -0.058970403 0.039628506 0.006493044 0.001806271 0.001604477
-0.020319957 0.009838048 -0.06466474 0.012190462 -0.036569644 0.013100935 0.010647185 -0.042141795
-0.106175445 -0.0002977968 -0.10253904 -0.11225845 0.031143479 -0.14924732 -0.046694823 0.027162338
0.18579687 0.0076476666 0.03392341 0.01939264 -0.073769055 -0.004551602 0.07498916 0.105565384
0.036035668 -0.08830271 -0.029802602 -0.0007777894 -0.014891405 0.04384767 -0.055599656 0.038900893
-0.012616513 -0.025332235 0.03171425 0.005838167 0.0025118715 -0.10012586 -0.036896374 -0.017995851
-0.034157906 0.036278833 0.020631544 -0.0064107496 -0.0027912788 0.0024211057 0.029236259 0.0021174308
0.051382236 0.044865903 -0.085205406 0.009552842 -0.0065067275 -0.03733724 0.028825046 0.014943064
-0.0067355563 -0.022896597 -0.08824079 -0.09578908 0.03369198 -0.041958287 -0.070209526 0.017052367
-0.017955376 0.047470815 0.039511498 0.10277978 -0.0044017807 -0.05620153 -0.09648959 0.055608258
-0.016174192 -0.15558699 -0.017198943 0.24475396 -0.020910023 -0.001776755 0.04652316 -0.020958425
0.05581054 -0.0459344 -0.00830907 0.07213146 0.026663989 0.022568995 0.02636942 0.0032250693
0.009909991 -0.026402099 -0.04319288 -0.072184004 0.008375248 0.017100807 0.03302732 -0.016675709
0.010429597 0.030799968 -0.0488667 -0.02235178 -0.018078377 -0.033176742 0.029268727 0.017377773
0.017868051 0.00050359656 0.004158603 -0.008363593 -0.056571703 0.0024689124 -0.044206265 -0.14873698
-0.07733537 -0.012110528 0.031797867 -0.018309807 0.037868254 0.045693554 -0.03493049 0.05822264
0.0059960973 -0.061824266 -0.007097439 0.015897075 -0.09798181 0.0032903655 -0.035267126 0.07031726
0.115799986 0.08537895 -0.02440179 0.1391896 0.16218655 0.016141105 -0.023480017 0.0026071996
-0.07439571 -0.013774697 -0.057327855 0.015772246 0.030538315 -0.053939547 0.0116148 -0.04437488
-0.007668838 0.010006357 0.023245033 0.007067611 0.019721707 -0.029489882 -0.011599721 -0.0019968243
0.05134659 0.0618078 -0.028274091 0.03246879 -0.013905713 0.015600666 -0.04957698 0.015612109
-0.018740607 0.0018393922 -0.018176787 -0.011850669 -0.028573085 -0.086047955 -0.034302585 -0.0077046943
-0.019550992 0.029850975 -0.04736117 0.015281524 -0.015921654 -0.012639638 0.009828716 0.02674368
0.04339907 0.015961317 -0.0059939483 -0.03502235 -0.008027108 -0.107491426 0.016162649 0.010880426
-0.006550069 0.113554135 -0.011178888 -0.008455639 -0.09794432 -0.018408688 0.0075110854 0.027173797
0.006879868 -0.023744613 -0.016585056 0.008136014 0.004635879 -0.024833472 -0.010259902 0.01434144
-0.021827677 -0.015407395 0.017879166 -0.022674166 -0.051956866 -0.087644435 -0.014022503 0.001207444
00000000: 2780 133d 5c5a a63c 261c 54ba c950 88bc
00000010: a261 293d 352e a9bd 716a 213d 6d28 bdbc
00000020: e3be cabd aba0 363d ce29 ccbb 413a ab3c
00000030: 91b4 cf3d ad8c b83c 84a1 bdbc 8316 cc3b
00000040: 3daf 683d 0864 f23d 3f11 853d 82aa 033c
00000050: 26a0 aabc ab37 ad3b 8555 69bd 596f 07bc
00000060: ae2b 063e 0385 c1bc abc4 08bd 05c6 b7bd
00000070: ab97 663d 3616 f8bc ed2f d3bd 3729 703d
00000080: 6979 57bd 08e6 383c cda5 8d3d 4000 383c
00000090: 9069 863b e7e5 813c 1718 d43a eb0e c8bd
000000a0: d244 343d f277 2abd e60a 0a3d f38a 71bd
000000b0: 8051 223d 9ac3 d43b 66c0 ec3a 504d d23a
000000c0: 0a76 a6bc c42f 213c f26e 84bd 81ba 473c
000000d0: 0dca 15bd 4ea5 563c 8871 2e3c e09c 2cbd
000000e0: 8372 d9bd 9c21 9cb9 fdff d1bd c2e7 e5bd
000000f0: 9c20 ff3c 4ad4 18be 1243 3fbd 8d83 de3c
00000100: 8941 3e3e 4799 fa3b 46f3 0a3d 50dd 9e3c
00000110: 3b14 97bd 9b25 95bb eb93 993d aa32 d83d
00000120: 239a 133d 0dd8 b4bd 9624 f4bc 90e4 4bba
00000130: 14fb 73bc 9d99 333d 77bc 63bd 8b56 1f3d
00000140: 7eb5 4ebc 8c85 cfbc cde6 013d 184e bf3b
00000150: 369e 243b c90e cdbd a720 17bd 096c 93bc
00000160: 29e9 0bbd 1d99 143d 7c03 a93c 4411 d2bb
00000170: e3ed 36bb 6aab 1e3b e180 ef3c 98c4 0a3b
00000180: 2e76 523d 4fc5 373d 2c80 aebd 8683 1c3c
00000190: 6336 d5bb efee 18bd 8122 ec3c c1d3 743c
000001a0: f1b5 dcbb a591 bbbc 96b7 b4bd 112d c4bd
000001b0: 9a00 0a3d 74dc 2bbd 03ca 8fbd 68b1 8b3c
000001c0: 2717 93bc c270 423d cfd6 213d 357e d23d
000001d0: d03c 90bb 9333 66bd 569c c5bd 7cc5 633d
000001e0: bd7f 84bc 3252 1fbe cce4 8cbc c8a0 7a3e
000001f0: 7f4b abbc 01e2 e8ba 128f 3e3d 01b1 abbc
00000200: 9899 643d b625 3cbd c422 08bc a9b9 933d
00000210: 706e da3c 9de2 b83c af04 d83c af5b 533b
00000220: 845d 223c 3749 d8bc 04eb 30bd 35d5 93bd
00000230: 5638 093c fe16 8c3c a847 073d 7f9b 88bc
00000240: e7e0 2a3c 3750 fc3c 7328 48bd 151b b7bc
00000250: 1b19 94bc 56e4 07bd f8c4 ef3c d55b 8e3c
00000260: 0560 923c cb03 043a e444 883b 7407 09bc
00000270: bbb7 67bd 7acd 213b a111 35bd 824e 18be
00000280: 0262 9ebd 3c6b 46bc 7b3e 023d 73fe 95bc
00000290: be1b 1b3d 2a29 3b3d 4613 0fbd dd7a 6e3d
000002a0: e97a c43b 713b 7dbd a291 e8bb 953a 823c
000002b0: b0aa c8bd 2ca3 573b 4374 10bd 7f02 903d
000002c0: 8b28 ed3d 29db ae3d 43e6 c7bc b887 0e3e
000002d0: 3b14 263e 5a3a 843c 2a59 c0bc 8ddd 2a3b
000002e0: c75c 98bd 44af 61bc 9dd0 6abd cc34 813c
000002f0: 7d2b fa3c b7ef 5cbd 014c 3e3c 6fc2 35bd
00000300: e04a fbbb b4f1 233c 5e6c be3c 6b97 e73b
00000310: 6b8f a13c c494 f1bc c20c 3ebc 27dd 02bb
00000320: cd50 523d 2d2a 7d3d 119f e7bc fefd 043d
00000330: cad4 63bc f099 7f3c 3b11 4bbd eec9 7f3c
00000340: e785 99bc c317 f13a 7ce7 94bc 4f29 42bc
00000350: 1a12 eabc e939 b0bd de80 0cbd a977 fcbb
00000360: 6729 a0bc 088a f43c c9fd 41bd 5b5f 7a3c
00000370: 216e 82bc 7c16 4fbc 9f08 213c 9015 db3c
00000380: 39c3 313d 4fc1 823c e268 c4bb 9873 0fbd
00000390: 2284 03bc 7724 dcbd 8867 843c d043 323c
000003a0: f6a1 d6bb 128f e83d a827 37bc 8589 0abc
000003b0: 0897 c8bd d1cd 96bc 8d1f f63b 959b de3c
000003c0: 8470 e13b 1084 c2bc 62dd 87bc eb4c 053c
000003d0: 92e8 973b 916f cbbc 2619 28bc 5cf8 6a3c
000003e0: f5cf b2bc 4c6f 7cbc 5477 923c 2cbf b9bc
000003f0: b9d0 54bd ed7e b3bd a4be 65bc 1943 9e3a

actor.6.bias f4 [16]
0.07262831 0.13825302 -0.16204387 0.1119517 0.14121994 -0.11947884 -0.030492682 -0.00081640016
0.16258688 -0.058897953 -0.18673937 0.049825113 -0.056695968 -0.010763609 -0.018587964 -0.022822715
00000000: 27be 943d 3392 0d3e d4ee 25be ef46 e53d
00000010: f69b 103e 52b1 f4bd cacb f9bc b003 56ba
00000020: 2d7d 263e fb3e 71bd 9b38 3fbe 6b15 4c3d
00000030: 083a 68bd d959 30bc c945 98bc b4f6 babc
