src/M20_sdk_deploy/policy/policy.onnx (onnx, 785189 bytes, 8 tensors)

actor.0.weight f4 [512, 57]
00000000: 053e 2f3e 5048 15bf 3e43 193f 41c2 51bd
00000010: 1381 b33e b8ae 813e fbbf f7bd db58 66bd
00000020: 3ce3 d0bb 05a5 133f 884d a5be 4442 1bbf
00000030: be3c 0e3f 2c3b 053f cf62 b3be f3ae 88bd
00000040: 4200 223f 6416 a23e db6e 6c3e be68 77be
00000050: c4c8 5e3f 3e1b 9dbd e732 28be 8557 1a3f
00000060: bac5 abbd 240e 9f3e 3401 b5be b2bd 86be
00000070: 6259 7cbf dd2e 7f3e 6894 213e c09d 17bd
00000080: 6db4 a0bd 2e98 5bbe 20d6 8bbd 5d89 1c3f
00000090: 4b4e 093f 0dfc eebd e469 aabd 9239 4abe
000000a0: bff8 6c3d c3d2 6fbd 050c adbd 19ae 14bc
000000b0: d9e0 62bd 4fee f63c a54f e23d 1cad 273b
000000c0: fd69 0f3d 8bd3 ad3c b0ea 2bbd 473c 933d
000000d0: 0e70 e9bd ad6a 4abb caab 71bc 7520 043c
000000e0: 55e9 b13b 50a5 11be e28a c33e 6252 7ebf
000000f0: a9be ed3e a0c6 ee3d 0f4b 933e 3f9e 073e
00000100: 5f80 32bf e042 1bbe a8c0 183f c388 93be
00000110: c27d 22bf ef82 503e 057a ba3e 3723 c3be
00000120: fa1c 6d3d 227c adbe 0094 a33e 16f2 1abe
00000130: d856 8a3e 2f33 2d3a 1ff9 68be 617c 8ebe
00000140: bf5a 8ebd f0bc ee3e b922 973e f3da 83bc
00000150: d6cb 10bf 10f5 63be 09d2 0fbf 96bf 7c3e
00000160: c465 483e 7cfe 7dbe 36f2 a53c f135 613d
00000170: 109f 8abe d7b9 5fbe 73e1 dbbc 0f58 dfbd
00000180: 126b 4fbe 73d9 72bc b110 45bc 06d4 d1bb
00000190: b532 e13d 50ad 83bd bdc9 3dbd 9151 e63d
000001a0: 1845 923a 0e03 96bb 45bf f4bd 39cc d6bb
000001b0: 7be2 95bd 40c4 3dbd 18ab 603d b58f 123d
000001c0: 4835 823d 15ff 89bc 542a 0d3e f22e c7bd
000001d0: a48a 38bf 3133 673e 2932 833e 984c 0d3e
000001e0: 78f0 5f3e f576 61bf 5fd8 3a3e 954d 493f
000001f0: 4c88 603f 8aeb 02be 5345 8ebf cb32 53bf
00000200: 5d4d 65bf 05b4 833e 8ac4 83be 21cc 0abe
00000210: 4777 b6be 2f21 c33e 1c44 2dbe 38a1 a8be
00000220: 8ba3 e73e 05b9 643e 5634 98bc c0ac 6f3e
00000230: c260 813e 108e 79be d639 7abf 5b8d 35bf
00000240: abc8 cebe 083c b63c c990 68be 59bb 66bd
00000250: 36c7 88bd b6a8 e5be fc68 593d f092 823d
00000260: 0228 b33c 7c34 03be d0c0 cd3d 33a3 49bd
00000270: 71a6 91bd b6b4 573a b66f 683c 80f1 9fbc
00000280: 665e 973d 4809 1bbd cc7d 26bc 74b0 0a3c
00000290: c426 663d e0a5 34bc 2dd9 d53d 1544 0cbd
000002a0: 6b54 293d eced d6bc d73c b33c 1050 e73e
000002b0: 3d07 26bf f40d b43e 3676 d2be e8ec f23d
000002c0: 592e ae3e 876e 9cbe 1695 d1bd 7734 0e3d
000002d0: ea62 88be e94d 72be f1e5 11bf eb5c 793e
000002e0: 0d56 a43e 8398 0cbe 7fae f33d eeed 0ebe
000002f0: edbf 193f 2795 2a3f c7be 663f 0d20 4abe
00000300: f3fb 813d 9bc1 abbe 9fc2 8e3c 4eeb 49be
00000310: 89da 6fbf 8274 c93e 0032 743e 7f31 9e3e
00000320: 1405 25be 6b25 0bbf 35dc d73e fd29 28bf
00000330: 99fc 1d3e 0073 25bf 8c3c 873f aacf 263f
00000340: 1978 f63d a7f3 8abd 2d35 7e3b 0cd5 1d3d
00000350: 828d 40bd b75c c2bd 4fa7 043e b31b bcbd
00000360: 51ae abbc 9591 2f3e efa5 3cbd e7ea 3c3d
00000370: e6df 53bd 15e4 51bd c562 debd 2f10 e63d
00000380: 7c14 93bb 2225 61bc f723 923b a1de 243d
00000390: b2a2 d0be 546b 0dbd 90d5 7ebe 9719 27bf
000003a0: 1227 373f 4205 983c 2b81 903e c37c 7ebe
000003b0: 7f1c bf3d e0ad eabe f0a0 a93e cb8c f63e
000003c0: 8ce7 3abf 3b73 4a3d babb ec3e 97d8 433d
000003d0: d194 bebe 4a0f bdbe 276b 593e 69ba d0bd
000003e0: 293a 113f 8536 183f 6af4 6f3e 7cca 263d
000003f0: 80f3 553e 718b ea3e 4eca 273d 3386 bd3e
0.17113502 -0.58313465 0.5986823 -0.051210646 0.35059413 0.25328612 -0.12097164 -0.056237083
-0.0063747447 0.57673675 -0.32285714 -0.6064799 0.55561435 0.52043414 -0.35036322 -0.06673994
0.63281643 0.31657708 0.23089163 -0.2416105 0.87025094 -0.07671212 -0.16425668 0.60289794
-0.08387323 0.31065476 -0.3535248 -0.263166 -0.9857389 0.2492022 0.15779269 -0.037015676
-0.078469135 -0.2144477 -0.068279505 0.611471 0.5363509 -0.116691686 -0.08320978 -0.19748524
0.05785441 -0.058550607 -0.08449558 -0.009074711 -0.055390213 0.030142931 0.11050347 0.002558536
0.035013188 0.021219036 -0.041971862 0.07189231 -0.11398326 -0.0030886338 -0.01475043 0.008064379
0.0054294267 -0.14223218 0.38191897 -0.99344456 0.46434525 0.116589785 0.28768203 0.1324396
-0.6972713 -0.1516223 0.5966897 -0.28815278 -0.6347314 0.20362447 0.3642122 -0.38112804
0.057888962 -0.33883768 0.31948853 -0.15131411 0.27019382 0.0006607053 -0.22751282 -0.2782927
-0.06950902 0.46628523 0.2951868 -0.016095614 -0.5656103 -0.22261453 -0.56179863 0.24682459
0.1957007 -0.2480411 0.020257097 0.054983083 -0.2707448 -0.21848236 -0.026840901 -0.10905468
-0.20255688 -0.014822352 -0.012027905 -0.006403449 0.10996 -0.06429541 -0.04633497 0.11246026
0.0011159508 -0.004578001 -0.11950544 -0.006555107 -0.07318588 -0.046329737 0.054850668 0.03578158
0.06357819 -0.016845265 0.13785678 -0.09725751 -0.7208655 0.22578122 0.25624207 0.1379875
0.21869075 -0.8807214 0.18246602 0.78634006 0.8770797 -0.12785164 -1.1114906 -0.8249938
-0.8957117 0.25723282 -0.25735885 -0.13554431 -0.35637876 0.38111255 -0.16920513 -0.329355
0.4524196 0.22336204 -0.018579643 0.23405743 0.25269133 -0.24370599 -0.977445 -0.70918816
-0.40387473 0.022245422 -0.22711481 -0.056331012 -0.066786215 -0.4485528 0.053078637 0.06375682
0.021869663 -0.1281299 0.10046542 -0.049227905 -0.07111824 0.0008228527 0.01418679 -0.019524336
0.07391052 -0.03785065 -0.010161828 0.008464921 0.056189314 -0.011025876 0.104418136 -0.034244616
0.041340273 -0.026236497 0.021879597 0.4517827 -0.64854795 0.35166895 -0.41105813 0.118615925
0.34019735 -0.30553076 -0.10233514 0.034718003 -0.26637965 -0.23662533 -0.5699149 0.24351852
0.32096902 -0.13730054 0.11898517 -0.1395795 0.6005848 0.6663384 0.90134853 -0.19738789
0.063468836 -0.33546147 0.017426787 -0.19718668 -0.93692833 0.393467 0.23847198 0.30897138
-0.16115218 -0.5435397 0.42160192 -0.6568907 0.1542839 -0.646286 1.0565352 0.6516062
0.120346256 -0.06784754 0.003878902 0.038533255 -0.047009952 -0.0949034 0.12954448 -0.09184971
-0.020957144 0.17145379 -0.046056684 0.046122458 -0.051727198 -0.051242907 -0.108586825 0.112335555
-0.004488526 -0.013741763 0.0044598537 0.040251378 -0.40749127 -0.034526184 -0.24886155 -0.6527342
0.7154399 0.018557195 0.28223547 -0.2485228 0.09331607 -0.4583578 0.33130598 0.48154292
-0.7300956 0.0494263 0.46236974 0.047813978 -0.37222913 -0.36925727 0.21232282 -0.10191805
0.5672937 0.5945819 0.2343308 0.040720448 0.20893669 0.4580951 0.040964417 0.37016448

actor.0.bias f4 [512]
00000000: b10c 3b3e f013 abbe f372 113e 96a4 183e
00000010: 4b5b 86be a967 843b d32a 1fbe 607a 64bf
00000020: db4d 05be 6ec9 69be bd98 5cbd c49a a0be
00000030: 6e5c 07bf 5ae6 10bd def6 563c cf42 1cbe
00000040: 68f4 7b3e 4400 14be 4a84 e8be 55b4 81be
00000050: 84c7 8abe 6f8d 9abd 43a5 a63c 7b1e 42be
00000060: 51f4 85be b15c f437 0e8b 933d dfa2 cd3d
00000070: 02bb 6cbc a89c b53e 21c2 df3d 9d70 123d
00000080: 418a 31be 58d8 e1bd 6b1b cabe b439 8cbe
00000090: 7879 35be e9b7 573e 187d b93d a688 a4be
000000a0: d4f0 be3c d065 433d 7c1b 6abe 4662 05bf
000000b0: 9264 b1bd 87eb 88bd 5c30 a1be dedc 19be
000000c0: d035 0ebd a88c 31be 0baf 813e 0698 5f3e
000000d0: a07e 543e 286b 8cbe 8a12 66be 13d1 7dbe
000000e0: d599 993e b9b3 f63d 0e7e 8b3e f36e e03c
000000f0: 71e0 3bbe 4fbc 453e 802e d7be 276a 05be
00000100: 2ecd a0bd 01f4 c1be 6b49 a7be 9143 2dbe
00000110: 2784 5ebe 393f 20bc 6860 54be f5b1 99be
00000120: ffb0 ebbc 4e62 96be ce3c 15bf 1516 acbd
00000130: 3886 03bf 8077 493e 809f f63d 0277 07be
00000140: 1c5b 22be 4a7e 5fbe fcce d2bd fa68 f8bd
00000150: 7e26 903d 0ca5 633c ae16 ad3d d87a 3ebf
00000160: c07c cfbe 6b93 aebe 457e 0abe a13d 8e3e
00000170: addc 413e dfa9 88be 187a 16be 36b8 443e
00000180: 5bf4 8e3c 29bf 713e 44d4 90bd 445f a9be
00000190: f7f4 c7be 83dd 963e 2410 6e3c 3eb5 b13e
000001a0: 6b44 a3be 2654 6cbe 95fc 6cbe 97d9 88be
000001b0: 1d1e 34bf c968 b0be fee6 8ebd 762e d3be
000001c0: 88f3 313e cdc6 5bbe d319 c6be 514e 03bf
000001d0: e52c 4dbd 50d9 64be e208 413b c903 503d
000001e0: 041a 4c3e 18cc b5be d8fa 44be a9aa 8d3d
000001f0: 3c28 8abe 7bd7 4c3c 462c b5be abe6 0dbd
00000200: b9cf 9b3c 2d60 e5be 43f6 a3be 7c95 573e
00000210: 1a0d 8fbe bbb1 78be eea0 06be a8da 53bd
00000220: 2d75 44be abf5 b5bd 7447 7bbe 89c9 f33c
00000230: 920f 8dbe 2e55 3abe b122 bcbc f7a3 723d
00000240: e9f9 07bf ac06 de3d c19e 5abe 4cd6 6abd
00000250: 1cee d0bd 62dc d7be 2bfa 31bf 4ec1 03be
00000260: bb57 cfbe a0cc 27be 0e29 41be 61b3 b13d
00000270: 89e1 edbd 3c94 473d be28 d2bd c2a7 7cbe
00000280: 50c7 a13e 5d75 8f3e c31f 9ebe 2515 8f3d
00000290: 68ca 9fbe a4be 16bf 5a24 d5bd a238 033c
000002a0: 72e4 46bd 8b50 98be f1d2 f4ba b72c 85be
000002b0: a42b 6dbe d2af f9bd 6ade cdbc 98ec 08bd
000002c0: 477f 4dbf ff23 45be de2d 1dbd f734 333d
000002d0: 8920 27bf 7ad8 64be 10ae 11bc e3c1 373e
000002e0: fed8 dc3d 0a1e e33d 230e 393e ebdf afbd
000002f0: 1afe c03c a479 593d 544f 383e fc83 1dbd
00000300: 37a4 89bd c91a 6b3e 5c06 3ebe 95f2 afbe
00000310: 6390 c0be 7b0a b0bd 5751 d93d f4fa 3abd
00000320: 55c2 2fbe 93c5 eb3d 4e7d 65be 8a1f 853e
00000330: 0934 3fbe cd1d 1bbf 7584 80be 9134 cbbe
00000340: b479 0b3e 8115 b5be 7745 3a3e 9c85 a13d
00000350: 1897 b3bd 35a7 a13d 30bd 973d 02a8 e5bd
00000360: c345 abbe 561e 09bf 7193 333e 36f4 333e
00000370: 1e5c 3dbd cecb acbc 8a68 53bf a59c b0be
00000380: c754 06bf 53b8 8a3e 136b 833e f9d9 9ebe
00000390: 4a81 053a 0ffd 2d3e 0b45 823c 67ec 4cbc
000003a0: 5546 8d3e 46af 09bf 922c a23d 2b53 ffbe
000003b0: 6cbd 75be ca19 a4be c4d4 15be 373a db3e
000003c0: b7bd 003e cf6d 76be 83f5 d63e 1a6b f6be
000003d0: 651e 89be c3b0 863d 090c 9f3d 5ce4 9a3d
000003e0: 94c0 b63b 4409 5d3e 6647 74be 4893 b9bb
000003f0: a76a 77be e5d8 613d 0dcc 2b3e fd8a 913d
0.1826656 -0.3341365 0.14204006 0.14906535 -0.26241526 0.0040406776 -0.1554368 -0.8924923
-0.13017981 -0.22830746 -0.0538566 -0.31368077 -0.5287541 -0.03537593 0.013120381 -0.1525986
0.24604952 -0.14453226 -0.4541343 -0.25332895 -0.27105343 -0.075465076 0.020342475 -0.1895694
-0.2616296 2.913023e-05 0.07204257 0.10040831 -0.014448883 0.35471082 0.10925699 0.035751928
-0.17337896 -0.110275924 -0.39474043 -0.27387774 -0.17722118 0.2106625 0.09057063 -0.32135504
0.023308195 0.047704518 -0.22862047 -0.5210308 -0.086617604 -0.06685548 -0.31482208 -0.1502566
-0.03471929 -0.17338812 0.2532886 0.21835336 0.20751429 -0.27425504 -0.2246801 -0.24786787
0.30000177 0.12045998 0.2724461 0.027396655 -0.18347336 0.19310115 -0.42027664 -0.13028775
-0.07851635 -0.37881473 -0.326732 -0.16920306 -0.217301 -0.009780698 -0.20739901 -0.30018583
-0.028770922 -0.29371876 -0.58295906 -0.08402649 -0.51376677 0.19674492 0.12042141 -0.13228992
-0.15855068 -0.21825519 -0.102933854 -0.12129398 0.07038592 0.013894331 0.084515914 -0.74406195
-0.40524864 -0.34096846 -0.1352473 0.27781394 0.18931837 -0.266921 -0.14695013 0.19210896
0.017450502 0.23608078 -0.070717365 -0.33080494 -0.3905408 0.29465875 0.014530215 0.3470859
-0.31888136 -0.23078975 -0.23143227 -0.26728508 -0.7035845 -0.34454945 -0.06977652 -0.41246384
0.17378056 -0.21462555 -0.38691577 -0.51291376 -0.050091643 -0.22348523 0.0029454757 0.05078486
0.19931799 -0.35507274 -0.19236314 0.069173165 -0.2698382 0.012502546 -0.3538534 -0.03464381
0.019019948 -0.4479994 -0.3202382 0.21053118 -0.27939683 -0.24286549 -0.13147327 -0.0517222
-0.19185324 -0.08884748 -0.24538976 0.029759185 -0.27550942 -0.18196556 -0.02296576 0.0592384
-0.5311571 0.10841116 -0.21349622 -0.057333276 -0.10201666 -0.42160326 -0.6952235 -0.12866709
-0.4049662 -0.16386652 -0.18863317 0.08676792 -0.11615283 0.04872535 -0.10261677 -0.2467337
0.31597376 0.2801923 -0.30883607 0.06986455 -0.3120911 -0.58884645 -0.10407324 0.008009108
-0.048557706 -0.2974895 -0.0018678588 -0.26010677 -0.23161179 -0.12191738 -0.02513047 -0.03342876
-0.80272335 -0.19252013 -0.03837382 0.043751683 -0.6528402 -0.22348204 -0.008891597 0.17945056
0.107835755 0.11089714 0.18071799 -0.08587631 0.023558665 0.05309452 0.17999011 -0.03845595
-0.067207746 0.22959436 -0.18557113 -0.34364763 -0.37610158 -0.08595749 0.106112175 -0.045649484
-0.17163976 0.11512294 -0.22411081 0.26000625 -0.18672194 -0.6059235 -0.25101057 -0.39688542
0.13620645 -0.3536797 0.18190561 0.07886812 -0.08769053 0.0789322 0.074091315 -0.112136856
-0.3345166 -0.53561914 0.17536713 0.17573628 -0.046230428 -0.021093275 -0.8258139 -0.3449451
-0.5247311 0.27093753 0.2566763 -0.31025675 0.0005092813 0.16991065 0.015902063 -0.012507535
0.27592722 -0.5378307 0.07918657 -0.4986814 -0.2399804 -0.32050925 -0.14631945 0.42817852
0.1257237 -0.24065326 0.41984186 -0.48128587 -0.26781002 0.06576683 0.077659674 0.07563087
0.0055771563 0.21585566 -0.23855361 -0.0056633092 -0.24161778 0.055138487 0.16777058 0.07106588

actor.2.weight f4 [256, 512]
00000000: 2da5 12bc c1ea dbbd 9890 113e 762d a5be
00000010: d677 f6bd 9d25 83bb cc31 e83d 274c f93c
00000020: caab a0bd 4d79 cebe 05be 673d 29eb d43b
00000030: 48ac 593e c36e 2ebd 07b2 983d d956 f2bd
00000040: 8e3a 3d3d 401d da3d cf5f 133e cb0e d6bd
00000050: 6a83 60bc 534c 2cbd 39fc c93d a3a0 633d
00000060: dce5 51bd aabb 42bd f3ba 803e 51c3 35be
00000070: 8af0 c1bd b79f 0c3e 0c41 6e3d 8106 8c3c
00000080: 986b 65bc 7c38 94bc 8888 04be 092c 663d
00000090: 9535 55be 1bd7 42be 29a1 893d 9820 8bbc
000000a0: bb1e 943d 7552 bbbc b9a1 8c3d 2938 c33d
000000b0: f8f9 b63d b7f6 d43c dc4e 86be 443d 6c3e
000000c0: 4f03 00be 0db4 c83d 5023 c73d 6b0b e83d
000000d0: aeba 27bc 2988 993e 6977 203e 1f93 26be
000000e0: 9361 82bc 3c05 073e 249b 5cbe f5c4 0a3e
000000f0: cf73 143e 0b8b ccbe 1625 803e 35e1 443e
00000100: 453c bebb 3c40 b13d 9521 3b3a 5027 5bbc
00000110: 1189 903d 5bc3 993d e99e 39bd 781c 1b3e
00000120: a022 a1bd 9f26 abbd 4dd9 b33c 7b51 24be
00000130: 40cd ab3d 576f 5c3e d2fa 093d 5734 06bd
00000140: ca58 793d 77e0 a1bd 4bc3 88bc e03e 683e
00000150: 7bc9 303d d5c7 16be d03a dd3e 684a be3d
00000160: a642 c8bd bfce 2a3d 0caf 34bd aa46 433c
00000170: 44d0 173e 5db4 5cbd 12ee ef3d 9021 3f3e
00000180: 3275 3a3d 0f4a 20bd 8bc1 07bd 6503 183e
00000190: c0dc c73d 4504 64bd f76b 073e ff6b 1cbe
000001a0: 50ea 833c 70b9 4e3e 8dd7 a6bd 7bb4 9ebd
000001b0: 66cd 05bd 6810 3d3c 2b25 96bd e2e4 fe3d
000001c0: 4abd 993d 40a9 56be 580e 92bd 4f53 47bb
000001d0: 9fb1 593d ca16 8bbc a09b 4c3c 32fc 853e
000001e0: 1e9b a63d 0973 0f3c b319 ef3d 51b4 57be
000001f0: cd09 633b 68cc 04bd 5147 2c3e 0285 0bbe
00000200: 4db8 1a3e 5375 efbd 5602 043e f98a 0d3c
00000210: e58b 61be 8e1d 5d3e 1d06 97bd ae37 79be
00000220: db2e 62be 99d5 533e 2bf9 aabd 4d59 0e3e
00000230: 0c64 c73d e8b9 0fbe 05f4 c8bd 0e95 393e
00000240: daeb 103d 0343 47bd 117d b3be 4d1f 2a3e
00000250: 679f 023a d445 153e e25f e73d 3267 b9bd
00000260: b74c 6f3d 9d43 dbbd 18f6 a2be a023 09bc
00000270: 3607 0dbe 25c8 20bc e9a1 8abe 90a6 a83e
00000280: 9a16 10be 55c7 e7ba 101f c13b df10 773c
00000290: c095 663d 9963 213d 5f53 0d3e dcfa de3d
000002a0: feac a2bd 09d2 403d 8223 b7bc d356 473c
000002b0: bce7 853c 2e2c 97bd a5f3 c63d 9caa b8bd
000002c0: 0359 943d 6ea0 853e eea4 95be 7453 8a3e
000002d0: 9613 7c3e caa7 e7bc 165d 51be 15af 53be
000002e0: 186f 68be 2c70 293e 3fdd 073c a389 b5bc
000002f0: d593 16be 8fa0 993d f755 44be 7181 433d
00000300: 3f55 4bbe 2ac0 71bc d66d 2bbe 8933 163e
00000310: 3bab 0abe 67cb 5b3d 5d95 bcbd f716 1ebc
00000320: 5255 033e 55df 10be c0dc 2a3e a01a 0abe
00000330: c42b 813e fbea 373e 5aa4 69bc ac7d 703e
00000340: e826 843c b6d5 953d e259 fbbd 2583 3a3e
00000350: 82f3 4ebd e5d3 b63e bd6a 093d 82fe 0cbe
00000360: c6d7 2abe ff70 273e b389 94bd 1980 9c3e
00000370: f5b2 03be aece 113d bee8 683d 4ec8 b53d
00000380: 1ee9 aa3d e17c fc3d 94da 423e e4d2 293e
00000390: 36a4 7ebd 0487 a0bd 02ba d73d 0ddb 02bd
000003a0: edce ce3c 9ada 423e 11a6 14bd 97c4 12be
000003b0: 64d1 363e e826 80be d774 03bd a3e7 6dbe
000003c0: ae10 0bbe e5a3 713d 8a09 793d 8aa8 d13d
000003d0: b7fb 5dbd 904e 2b3d 69be 0bbe 391c bdbe
000003e0: 5359 f93d bad3 67be 1cf4 c53d c103 c33d
000003f0: e337 e93c e528 30bd d330 533e 10b0 13be
-0.008950514 -0.10738135 0.14215314 -0.32261246 -0.12034576 -0.0040022866 0.11337623 0.03043182
-0.07845266 -0.4032692 0.0565777 0.00649776 0.21257126 -0.0425861 0.07455831 -0.11832971
0.04619842 0.1065011 0.14392017 -0.1045204 -0.013703207 -0.042064976 0.09862561 0.055573117
-0.0512446 -0.04754225 0.2514263 -0.17750289 -0.09469707 0.13732801 0.058167502 0.017092945
-0.014002703 -0.01809334 -0.12942708 0.05619434 -0.20821221 -0.19027369 0.06720192 -0.016983315
0.07232424 -0.022866467 0.06866784 0.09532196 0.089343965 0.025996549 -0.2623204 0.23070246
-0.12501262 0.09799967 0.09723532 0.11330303 -0.010237379 0.29986694 0.15670551 -0.1626706
-0.015915668 0.1318559 -0.21543556 0.13551696 0.14497302 -0.3994983 0.25028294 0.19226535
-0.0058055245 0.0865483 0.0007138488 -0.013376072 0.07057393 0.07507964 -0.045317564 0.15147579
-0.07867932 -0.08356976 0.021954203 -0.16046707 0.08388758 0.21526848 0.033686467 -0.03276476
0.06087569 -0.079041414 -0.016694685 0.22680235 0.043160897 -0.14724667 0.43208933 0.092915356
-0.09778337 0.041701075 -0.04411225 0.011918703 0.14825541 -0.053882945 0.1171533 0.18665147
0.045521922 -0.039133128 -0.03314356 0.14845045 0.097589016 -0.055668134 0.13224779 -0.15275572
0.01610294 0.20187926 -0.08146582 -0.07749268 -0.032666586 0.011539556 -0.07331308 0.12446
0.07506807 -0.20963001 -0.07131642 -0.0030414646 0.05314791 -0.01697864 0.012488276 0.26168972
0.08135055 0.008755454 0.116748236 -0.21064879 0.0034643293 -0.0324215 0.1682408 -0.13624957
0.15109368 -0.116923 0.12891516 0.008639091 -0.22026022 0.21593305 -0.07374213 -0.24337646
-0.22088186 0.2068695 -0.08348306 0.13901253 0.09735879 -0.14035761 -0.09812168 0.18123266
0.035381176 -0.04864789 -0.35056356 0.16613503 0.0004982859 0.14577419 0.11297585 -0.09052886
0.05842277 -0.107062556 -0.3182838 -0.00837031 -0.13772282 -0.009813343 -0.27076653 0.32939577
-0.14071122 -0.0017683307 0.0058935955 0.015079706 0.056295156 0.039401624 0.13801335 0.108876914
-0.07943152 0.047075305 -0.022355799 0.012166697 0.016345851 -0.073814735 0.0971444 -0.09016916
0.0724354 0.2609896 -0.29227394 0.27016795 0.24616846 -0.02827825 -0.20445666 -0.20672257
-0.22698629 0.16546696 0.008292495 -0.022160357 -0.14704831 0.07501327 -0.19173418 0.047730867
-0.19856738 -0.014755288 -0.16741118 0.14668097 -0.13541882 0.053660776 -0.09208176 -0.00964903
0.12825516 -0.14147694 0.16685772 -0.13486719 0.25228703 0.17960732 -0.014260376 0.2348544
0.016131833 0.07316153 -0.12273003 0.1821409 -0.050525196 0.35708538 0.03354906 -0.13768962
-0.16683874 0.16351698 -0.072528265 0.3056648 -0.12861235 0.035597496 0.056862585 0.08876096
0.08345245 0.12328506 0.19028693 0.16584355 -0.062168323 -0.07838252 0.10533525 -0.031947184
0.025245154 0.19028702 -0.036291186 -0.14332806 0.17853314 -0.25029683 -0.03209385 -0.23232894
-0.13580582 0.058994193 0.060800113 0.102372244 -0.054195132 0.04182297 -0.13646854 -0.36935595
0.1217524 -0.22639361 0.09665701 0.095222004 0.028469032 -0.04300775 0.20624094 -0.14422631

actor.2.bias f4 [256]
00000000: 7894 1bbe ae89 74be a2e4 58be 91df 14be
00000010: 28b2 01be 0625 95be c1b8 debe d7ab 7cbe
00000020: 6b2d 39be 3fc9 e9be a8b4 90be 0191 36be
00000030: 58e3 a6be cd8c 57be 83f3 8bbd a4d3 40be
00000040: ce8b 1cbc 4c60 8fbd 40b6 ecbc c9e3 d3bd
00000050: 9d16 7d3d 66a7 0dbe d087 e9bd ba7f 25be
00000060: 8c5d 91be 4194 603c 8c67 ddbb b170 3ebe
00000070: 8439 3abe d893 ebbd 4c4c 3bbe b91d 15be
00000080: 0a6e 8ebe ceeb dbbd e3db c4bd db33 dabe
00000090: 57ef 2bbd 5189 12be bb2f 97be 65e9 8c3a
000000a0: ef34 d1be a3a4 b2be fcf3 3abe 8e31 a7be
000000b0: 2644 16be 76ab 7ebe 48a4 4dbd fa15 91bd
000000c0: d7d4 3abe 7c66 9fbd 5b61 9fbd f4a5 57be
000000d0: 5bec 93be 3381 20be 6aba 1dbf 1b7a 6fbd
000000e0: 87f4 7abd c2ed 03be 8527 1cbe 2cba b0be
000000f0: 9ba1 b93d 7b82 7e3e 0b20 b2bd 820a 133d
00000100: 7304 e6be a2ad bcbe 2656 73be d94c 58be
00000110: 75d0 78be bc84 5abe 35b3 cfbc 914b d7be
00000120: 03e4 55be d615 19bf fa16 ebbc 7708 263d
00000130: e863 c3bc 0cd7 27be 0142 0ebe 54f2 4cbe
00000140: 26d1 38be 0611 5a3e 6270 8bbe 064f 06be
00000150: 77ec 93be f4b5 663d 50d1 c6be 056f 48be
00000160: 9343 983c 94bb edbe 9be3 d7be 8048 06bf
00000170: 7507 91be 5c7b d6bd 19af 04bf 11cd babd
00000180: f5ba e2be e8f9 41be 7f46 113e d6c4 c3bd
00000190: 8730 31be 3e44 9dbe 49da b3be 73f4 fabe
000001a0: 6911 6dbe 1018 abbd b344 a1bc 3cec 88bc
000001b0: 6d8f 05be f465 77be 2f8e b9be 11ae 073d
000001c0: 8a43 52bd 0438 65bc 6f89 703c 82b5 78be
000001d0: cac2 80be 1410 a8be aff8 a7be c998 80be
000001e0: b10f a9be 5206 f2be 7992 55be 33f9 12be
000001f0: 2b45 f9bd 4bef 9e3d faec 91be 679a 4bbe
00000200: c4c2 8dbd 9e6e 7ebe 9e31 35be 0bf8 02be
00000210: c646 b0bd e5e6 2bbe a503 31bf 51f7 03bf
00000220: 5803 acbe fcc8 15be 1994 0dbe 01c7 dbbd
00000230: 8e33 bdbe 1542 22be e380 20be 30ff 81be
00000240: 4e7f d4be 4964 53be 72ae 5abe e049 a2be
00000250: ce85 2dbf edcd 7c3e 5708 bebe 5e07 4fbe
00000260: 3ac6 01bf 6687 453d 798e f0bc 74ba b53d
00000270: 66aa 5a3d ef23 33be 476a 78be ffa4 85be
00000280: 0370 af3d f1b0 11be 830a 9cbe a115 33bf
00000290: 311d 2abe f343 61be 82e4 d4be aac0 b7be
000002a0: 67f5 0bbe d46b c5be 15af 46be 3335 d3bc
000002b0: f0f6 64be 269d 23bf 1a07 f3bd a388 c8be
000002c0: b551 20bf ed62 82be c916 58be 5183 9abe
000002d0: 68b2 b4be 2147 e1be 9f2c 043c 622d 96be
000002e0: 6ba3 d2bd e38e f3bd 7145 0fbf 3ba7 29bf
000002f0: 72a5 38be 775b 88be 326f cdbc 93cd f8bd
00000300: 5edc 9dbe d321 72be ef4b 62be 1c6c 1cbf
00000310: 32af c3bc 96d5 efbe ef66 59be 6e5d dcbd
00000320: 57b3 2cbe b8b9 46bd 53a4 3dbe 0dbe 39be
00000330: 8cfd efbe 68a8 57be acc0 6bbd be46 1bbf
00000340: 1302 c3bd 001b d8be 19c7 bebd d05f cfbe
00000350: 5813 a1be 9e20 bc3d 3244 5bbe 009b 2ebd
00000360: c05a d3be 5ea9 b6be b2ad a0be 8d81 81be
00000370: e7c7 78be a43a afbe d12e c03b ad5c 0f3e
00000380: 8558 dabc abde d5be 5c33 d9bd 2f29 bdbd
00000390: 13dc b4be 9ed3 90be 567e 953d 8a06 61be
000003a0: 8790 b8be c0a2 c7bd 01d9 23be 8cff 2cbd
000003b0: 3cb4 023e 664c 54be 8899 91be 4be9 60be
000003c0: af2f 70be d29a 12be f199 aabe 0d8b 74bb
000003d0: 5c75 a1be 2b0c 3abe 71af 74bd c3fc d5be
000003e0: e372 31be a9a0 1bbe 4da8 b3be b28b b4be
000003f0: 048c 10bf ad50 5abe 9265 143e 2122 6fbe
-0.15193355 -0.23880646 -0.21180966 -0.14538409 -0.12665617 -0.2912981 -0.4350033 -0.24674927
-0.18083732 -0.4566135 -0.2826283 -0.17828752 -0.32595325 -0.21049805 -0.068335555 -0.18830734
-0.009554816 -0.07000789 -0.028895497 -0.10346181 0.061789144 -0.13833389 -0.11402857 -0.16162005
-0.28391683 0.0137072215 -0.0067567285 -0.18597676 -0.18186003 -0.11502808 -0.18290824 -0.1456212
-0.27818328 -0.107383355 -0.096122526 -0.42617688 -0.0419763 -0.14310195 -0.29528603 0.0010750709
-0.40860698 -0.34891233 -0.18257135 -0.32654995 -0.14674434 -0.24870095 -0.0502055 -0.0708427
-0.18245254 -0.07783219 -0.07782241 -0.210594 -0.28891262 -0.15674286 -0.6161257 -0.05846606
-0.061268356 -0.12883666 -0.1524945 -0.34517038 0.09064027 0.24854462 -0.08697518 0.035898693
-0.4492527 -0.3685122 -0.23763332 -0.21123065 -0.2429827 -0.21339697 -0.025354007 -0.4204984
-0.20887761 -0.59798944 -0.02869748 0.040535416 -0.02385135 -0.16390628 -0.13892366 -0.20014316
-0.18048534 0.21295556 -0.2723418 -0.13116083 -0.28891346 0.056325868 -0.38831568 -0.195736
0.01858691 -0.46432173 -0.42165837 -0.52454376 -0.28326002 -0.10472748 -0.5182968 -0.091211446
-0.44283262 -0.18942988 0.14187048 -0.09559028 -0.17303668 -0.30716127 -0.35127476 -0.49014625
-0.23151173 -0.08354199 -0.019686079 -0.016714208 -0.13042994 -0.24159986 -0.3624129 0.033124987
-0.05133394 -0.013990406 0.014681204 -0.2428799 -0.25148612 -0.32824767 -0.32806918 -0.25116566
-0.33019784 -0.47270447 -0.20856656 -0.14352874 -0.12171396 0.07760485 -0.2850111 -0.19883119
-0.06921914 -0.24846885 -0.17694709 -0.12789933 -0.08607249 -0.16787298 -0.69146186 -0.5154925
-0.335963 -0.1462745 -0.13826026 -0.10731316 -0.36953396 -0.15845521 -0.15674166 -0.25390005
-0.41503376 -0.20643725 -0.21355608 -0.31696987 -0.67782295 0.2468793 -0.37115738 -0.20217654
-0.50693095 0.04822483 -0.029364811 0.08873454 0.05338516 -0.17494176 -0.24259292 -0.26102445
0.085662864 -0.14227654 -0.3047677 -0.6995488 -0.16612698 -0.21998577 -0.41580588 -0.3588918
-0.13667832 -0.3855883 -0.19402726 -0.025782203 -0.22359824 -0.63911664 -0.11866589 -0.39166746
-0.62624675 -0.254661 -0.21102442 -0.3017831 -0.35292363 -0.4399958 0.008067279 -0.293315
-0.10285076 -0.11892488 -0.55965334 -0.662708 -0.18031862 -0.26632282 -0.025077436 -0.12148585
-0.3083219 -0.23645715 -0.22099279 -0.6110246 -0.02388725 -0.4684264 -0.21230672 -0.10760008
-0.16865288 -0.04851696 -0.18519716 -0.18138905 -0.46873128 -0.21060336 -0.057556793 -0.6065482
-0.0952188 -0.422081 -0.093153186 -0.40502787 -0.3146007 0.09185909 -0.21412733 -0.04262829
-0.41280174 -0.35676092 -0.3138252 -0.25294152 -0.24295007 -0.34224427 0.005864956 0.14000197
-0.026653538 -0.41771445 -0.10605499 -0.09236371 -0.35324153 -0.2828645 0.07299487 -0.2197515
-0.36047766 -0.09747839 -0.16000749 -0.042235896 0.12764066 -0.20732269 -0.28437448 -0.21963994
-0.2345569 -0.14316872 -0.33320573 -0.0037314326 -0.3153485 -0.18168704 -0.059737626 -0.41794404
-0.17328982 -0.15198006 -0.3508934 -0.3526283 -0.56463647 -0.21319838 0.14491871 -0.23352863

actor.4.weight f4 [128, 256]
00000000: 8e23 3dbe 187e 55bd e014 a13e ecd1 e0bd
00000010: bc45 d8bc 8231 823d 6a16 213d c911 3dbd
00000020: ea52 4abd 23e9 c6bc cfe3 59be 92ed 35be
00000030: f3c1 2b3a 9b67 933b 5150 14be bd40 9cbe
00000040: 34da 9fbe 1589 10be c0db a53c 9324 d83d
00000050: d445 aabe e216 43be ffaa 7ebe 63b0 47bd
00000060: 2e6d bd3e 4d47 213b 3d73 11be 502a 493d
00000070: 7d9d 16bd cc73 68be e0e6 c83d e2d8 cebd
00000080: 963d f9bc 041f c5bc a71b 013e 7c85 113e
00000090: 72b6 7e3e b026 4cbe 4f44 783e 0f83 dabd
000000a0: ef55 883e af35 683e 2ea9 0c3c afff fa3d
000000b0: 5342 08be 2aad 253e ab7f 603c bcad 2abb
000000c0: 42a4 25bd aa8f b4be 7522 a3be b1a5 cf3e
000000d0: 5b40 68bd 42a1 d8bd 9489 a53d 8464 07be
000000e0: 324b aebe 6e2c 1dbe 0804 fbbc 4562 67be
000000f0: 9a65 3ebe 08b7 32be 305a bdbd e5b1 753d
00000100: cbfb 52bb 274d ff3d f22b 3f3e c22c 53be
00000110: 54e6 143e 0d74 b9bd f1d4 00be 6340 b1ba
00000120: 80fb 33be b2ce 30bd 0d11 0fbe 634e 60be
00000130: 6c23 80be 00ea e03d 99d2 fd3d 8cc4 e93c
00000140: 033e f73d 2b25 1fbe e442 b8be 7be6 bcbc
00000150: 60e0 b53d eb98 42be 6c72 c33e 0213 143d
00000160: 4b0e ff3d 9e6a 25bc 7fef 453e bc29 de3d
00000170: 8d86 a43e 16c4 cf3d e88b 23bc 8d2a 923d
00000180: fd8d cebd b877 ecbe e248 9cbe cf68 023e
00000190: eda0 edbe 2a4b 8bbe ae87 0cbe 5fe0 b33d
000001a0: 9dba 2a3c d393 583d 90b6 f13d f817 0bbe
000001b0: dbb5 0abf d907 5d3c ebad cbbd 3d1a 4c3e
000001c0: 3d58 ba3b c2e2 653d 76d4 bcbd fd68 50bc
000001d0: 26f1 dbbd 8bca 903c c877 4abe d6ac e43c
000001e0: fca1 83be fd23 99bd 38b7 edbd e59b a13d
000001f0: e062 653d 9085 8abe e4bc b03d 7df6 c4bd
00000200: 02bf be3c 372b 61be a523 0bbe 58c0 55be
00000210: 3f2e 39bd 8dd8 89bd 78e0 da3d 254b a53d
00000220: 6d68 36bd 9748 6f3e c2eb 89bd b477 3abd
00000230: 0406 0f3d ea66 f93b fa21 613d 9e0e 963d
00000240: 799c bdbd 48ee b9be e1b9 acbe e599 61be
00000250: 632d 883b b4e2 06be 2c09 163e e715 1abd
00000260: 168c 3b3e 4bc9 7f3d aed8 e23d 60df 973d
00000270: 07a5 babe 7289 023d b388 693d 3e31 013e
00000280: e527 adbd 3518 88be 199f 353c 3ca3 60bd
00000290: aa47 ae3c 50a5 8abe 5653 65be 3424 06ba
000002a0: d98c 363d 84fd 26bc a923 75bd 2857 03bf
000002b0: 42f7 a939 9ace dd3d e643 9bbd 0818 21be
000002c0: ee8d 043d 58f8 03be 1894 8b3c c5a3 1e3d
000002d0: a057 a2be ea22 293e c0fc 0b3b 1691 133d
000002e0: a6f3 eb3d eb27 91be b82b 1c3e 8799 a6bd
000002f0: b0a4 51bd aeea 9e3d 07d2 ee3d b622 89bb
00000300: 414a f8bd 14b2 21be 0e2f e7bd 3b73 d53d
00000310: d125 bcbd a7d4 483e 1866 a4bd 8536 aabd
00000320: d47b 373e 0698 c8be 2714 8abe 3120 513b
00000330: 1488 cb3d 8716 3d3e 3ee1 8fbd f2b1 a83d
00000340: 7cb2 c33d 926f 5abc b207 afbe bff5 383e
00000350: fc7f 243d 7da4 73bc 1568 543c 847d 99be
00000360: 52be 7e3e 5747 e53d 1fe7 a03e c33f 5dbd
00000370: 2258 233e 6553 edbd dffb e8bd 476a c93d
00000380: 998a 3f3e d6be 293e 51ef b3bd 2eca 05be
00000390: e00f 9e3e 07c9 65bd 89db 2c3d 87bf febd
000003a0: 4f13 843e 03ca 6abd d27b 0ebd 0483 b7bd
000003b0: 3d5d afbe 93e5 b93c 1f85 8cbe e980 98bd
000003c0: 6ace 873e 6e97 fcbd 6787 d6bd 0659 f73e
000003d0: 13b2 713e c3fb c33c fdde 063e 6a43 8abe
000003e0: 1479 efbc 0e5e 6b3e 0a7d 4b3e 8436 a4be
000003f0: 960d 013e 2d42 30bd 0282 0dbe 2f63 083e
-0.18470594 -0.052122205 0.3146124 -0.109775394 -0.02640044 0.06357099 0.039328016 -0.04615954
-0.04939548 -0.02428109 -0.21278308 -0.17766407 0.0006552033 0.0044984347 -0.14483763 -0.3051814
-0.31221163 -0.14114793 0.020246387 0.10553851 -0.332564 -0.19051698 -0.24869917 -0.0487522
0.3699736 0.002460915 -0.14204116 0.049112618 -0.036771286 -0.22700423 0.09809661 -0.10099961
-0.030424874 -0.024062641 0.12608205 0.14211076 0.24874285 -0.19936633 0.24244808 -0.10669529
0.26628062 0.22676729 0.008585257 0.12255799 -0.1330655 0.16179338 0.013702313 -0.0026043495
-0.04043985 -0.35265857 -0.31862226 0.405561 -0.056702 -0.105776325 0.080828816 -0.13221937
-0.34041744 -0.1534898 -0.03064157 -0.2259608 -0.18593445 -0.17452633 -0.092457175 0.059984107
-0.0032193537 0.124658875 0.18669108 -0.20622543 0.14540988 -0.09055338 -0.1258123 -0.0013523217
-0.17576408 -0.04316587 -0.13971348 -0.21904902 -0.25027025 0.10982132 0.12393684 0.028536104
0.12072375 -0.15541522 -0.35988533 -0.02305912 0.08880687 -0.19003646 0.38173234 0.03615094
0.12453898 -0.01009622 0.19329642 0.10847804 0.32133904 0.10144822 -0.009982087 0.07137022
-0.10085676 -0.46185088 -0.30524355 0.12735294 -0.4641184 -0.27205783 -0.13723633 0.0878303
0.010420469 0.05287535 0.11802399 -0.13583362 -0.5418374 0.013490641 -0.099452816 0.19931884
0.0056867884 0.056124456 -0.09220211 -0.012720344 -0.10739355 0.017674705 -0.19772255 0.027914446
-0.25709522 -0.07477567 -0.11607212 0.07891063 0.056002498 -0.27055025 0.08629778 -0.096173264
0.023284439 -0.21989141 -0.13587816 -0.20874155 -0.04521012 -0.06730757 0.10687345 0.08070973
-0.044533182 0.23367535 -0.0673442 -0.045524314 0.034917846 0.0076111453 0.054964043 0.07327007
-0.092583604 -0.36314607 -0.33735564 -0.22031362 0.004155801 -0.13172418 0.14651936 -0.037618544
0.18315157 0.062447827 0.110764846 0.07415652 -0.3645403 0.03186936 0.057015132 0.1261644
-0.08454875 -0.26580968 0.011085295 -0.054843172 0.021274406 -0.27079248 -0.22395071 -0.0005117089
0.044567917 -0.010192279 -0.05984846 -0.51304865 0.00032418413 0.10830422 -0.0758131 -0.15731823
0.032361917 -0.12887704 0.01703839 0.0387304 -0.31707478 0.16517225 0.0021360368 0.036027037
0.115210816 -0.28350767 0.15251052 -0.08134752 -0.05118245 0.07759605 0.11661153 -0.004185046
-0.12123538 -0.15790588 -0.11288272 0.10422369 -0.091869004 0.1961237 -0.08027285 -0.0831118
0.1791833 -0.39178485 -0.269685 0.0031910057 0.09938064 0.18465625 -0.070253834 0.082370654
0.095555276 -0.0133322645 -0.3418556 0.18062495 0.040161118 -0.01487076 0.012964268 -0.29978573
0.24877289 0.111952476 0.3142633 -0.054015886 0.15951589 -0.11588172 -0.113761656 0.09834724
0.18705215 0.16576704 -0.0878588 -0.13065407 0.30871487 -0.056099918 0.042201553 -0.12438875
0.2579598 -0.05732156 -0.034786053 -0.08960536 -0.34250823 0.022692477 -0.27445313 -0.07446463
0.2652467 -0.123335704 -0.10475045 0.48310107 0.23603086 0.02392376 0.13171001 -0.27004558
-0.02923254 0.22985098 0.19871917 -0.32072842 0.12602839 -0.04303186 -0.13819125 0.13319086

actor.4.bias f4 [128]
00000000: c34b 2bbe 6977 c0be 5a5f b6bc 7dfa 95bd
00000010: 1af9 84be 5c6f 29be 8f22 dabd c3e5 4fbe
00000020: 70c5 00bf 912c cbbd 8ce2 5cbe cfdf 34be
00000030: 5c07 81be 87b7 05be 6c00 bdbe 58c6 4fbe
00000040: 8eb5 66be 3a00 d7be d3fe 43be d35b e3bd
00000050: 7cdf b8be 6d55 48be 7834 a3be 45ee b1bd
00000060: 5a4b 8ebd 3dc4 b0be bd80 6ebe 1b80 3ebe
00000070: 49ab 89be 6a00 46be ed1f e1be 912f 93be
00000080: 625f 92bd 4878 88be cdfd 65be 4674 7abe
00000090: 0a0b 25be bc41 a0bd c99e 1fbe a06f 3fbe
000000a0: f10c 4abe 8240 10be 64a6 a8bc d033 69be
000000b0: 9ab9 c43a e913 43be 03fd 72be 0d3a 3bbe
000000c0: 3291 0dbf 33c2 8fbe c6b7 17be 6110 88bd
000000d0: 1784 82be c7a5 70bd 3d45 2cbe f44b 4cbe
000000e0: 248b eebe 2ce2 76be e2a9 1bbe 87b6 14be
000000f0: 029d 633c dcf4 d4bd 8f38 bcbe 3d1f 6ebd
00000100: 212c d6bd d3a2 65be c6b2 ecbd 5d64 e4bd
00000110: 5b2b 3cbe dec1 1ebe 8bed 4dbe 1a91 21be
00000120: db5f f03d 077c 2fbe a2d2 c9be df2b c1bd
00000130: 8de7 76be 796f 14be 9370 82be 0fe1 13be
00000140: fdb3 69be 9aee 87be 7973 97be 4ec2 0fbe
00000150: 0db7 d2bd 443c 0c3e c85e 17be c68c 82be
00000160: 4214 4dbe 2b09 5bbe 4021 febe eab2 13be
00000170: f983 1fbe 2d6d cebe da38 10be 8623 bb3c
00000180: bc93 37be ccbf 1fbe c0ac 6fbd 6a6d 8ebd
00000190: 1546 3abe 5f73 c8be ce52 11be 4efd f9bd
000001a0: e995 a7be 5549 d8bd a947 1bbe adab 4cbd
000001b0: 810c f1be cf58 7fbe 3861 4fbe b967 ddbd
000001c0: 2e12 07be 393e 99be 90f3 f538 53da 1bbe
000001d0: 7819 48be 0c70 4cbe fe98 08be 9b3b babe
000001e0: 3f4a 31be 7164 89be 7af0 06bf 65b8 4cbe
000001f0: d63d 4abe af31 83be 0e05 06be c00a 26be
-0.1672812 -0.37591103 -0.022262264 -0.073231675 -0.259713 -0.16546386 -0.10651123 -0.20302491
-0.50301266 -0.0992061 -0.21570796 -0.17663501 -0.25200927 -0.13058291 -0.36914384 -0.20290506
-0.22530195 -0.4199236 -0.19140176 -0.111014985 -0.36108005 -0.19563837 -0.31875968 -0.086880244
-0.06947966 -0.34524718 -0.23291297 -0.18603556 -0.26888493 -0.19336095 -0.4396967 -0.28747228
-0.07147099 -0.26654267 -0.22460099 -0.24458417 -0.16117492 -0.07825038 -0.15587915 -0.18694925
-0.19731499 -0.14087108 -0.020587154 -0.22773671 0.0015008927 -0.19050564 -0.23729329 -0.18283863
-0.55299675 -0.2807785 -0.14816198 -0.06643749 -0.25491402 -0.058751848 -0.16823287 -0.19950849
-0.4659053 -0.24109715 -0.15201524 -0.14522754 0.013892414 -0.10398266 -0.367619 -0.05813526
-0.10457636 -0.22425394 -0.11557536 -0.11151955 -0.18375914 -0.15503642 -0.20110147 -0.15778008
0.11737033 -0.17137156 -0.39418513 -0.09432196 -0.24111767 -0.14495648 -0.25476512 -0.14441322
-0.22822566 -0.26549226 -0.29580286 -0.14038965 -0.102888204 0.13694865 -0.1478225 -0.25498027
-0.20027259 -0.21390216 -0.49634743 -0.14423719 -0.15577687 -0.4031767 -0.14084187 0.022844087
-0.1792745 -0.15600508 -0.058514357 -0.06954463 -0.18190797 -0.3915052 -0.14191744 -0.12206517
-0.3273156 -0.10560862 -0.15164055 -0.04996841 -0.47079852 -0.24936222 -0.2025193 -0.10810799
-0.13190529 -0.29930285 0.000117278774 -0.15220003 -0.19540966 -0.19964617 -0.13339612 -0.363736
-0.17313479 -0.26834443 -0.5271069 -0.19992216 -0.19750151 -0.25623843 -0.13087866 -0.16215038

actor.6.weight f4 [16, 128]
00000000: a8b3 353d 367c ef3b 3cff aa3b 3aba 0bbd
00000010: d297 cb3c 88b5 a1bd cb24 343d 3b7b 28bc
00000020: 7249 ccbd 5949 513d ee35 603c 09b6 b83c
00000030: 0062 ad3d 6131 993b 2565 a7bc 35e1 ad3b
00000040: 59de 643d 4e1e e63d 849d 733d b3ed 483b
00000050: bc6a d1bc 1b12 413c e773 89bd 5670 66bc
00000060: f985 e13d 272f 0fbd 7d73 12bd 731b c8bd
00000070: 413a 843d f7aa 3cbd dacc c7bd b7fc 403d
00000080: a3e5 12bd bb86 4dbb 0323 853d 84a5 0e3b
00000090: 2233 863c 1dac 8f3c 2a58 40ba 320d d2bd
000000a0: dec8 113d bbc8 07bd 0728 483d 09c4 7dbd
000000b0: 2877 2b3d 8612 1cbc 8e49 263b ae3d 693c
000000c0: 1057 a1bc 95b5 663c 3809 96bd b7f4 83bb
000000d0: ed27 2bbd fc10 223d 7247 bdba 4ea7 08bd
000000e0: a597 c3bd edbd 07bc ecd7 f1bd 1e73 e2bd
000000f0: 4847 a03c bc03 11be 9b4c 56bd 8797 e73c
00000100: 5094 443e b29c 6ebc 2a52 713d f913 9b3c
00000110: 476a aabd 639b e7bc b634 dc3d 928d cb3d
00000120: 5fde db3c a7d7 cfbd e509 0dbd 023d 0f3b
00000130: 2122 cd3a ef5b 033d 18c6 4fbd 250f 403d
00000140: 61f0 43bc 2456 4ebb bfaa d33c 6106 d33c
00000150: fc83 03bb d82b e5bd 868e 07bd fdfd cebc
00000160: b9b3 b6bc 41cd 063d b895 823b 65bb 4dbc
00000170: 3b7d bcbc 03c9 f43a ecf2 d83c 55a3 d83b
00000180: 09c4 913d 4059 1e3d dc2c bdbd 9171 6b3b
00000190: 74f3 84bc b2b1 4bbd 4cca 113d bf73 1a3d
000001a0: 33d4 20bd b98a 8ebc 4757 c1bd 9136 c4bd
000001b0: 8d01 833c 7058 fbbc bc8b 97bd 4843 3c3c
000001c0: d11e 10bc bc97 5c3d 6142 423d 0a91 d93d
000001d0: be11 aebc 6f41 65bd 4278 cabd 8cc5 393d
000001e0: 7d0d e2bc ab1f 16be e9b0 8d3b f973 6d3e
000001f0: b657 94bc 3473 0fbc ccd7 383d 6b62 a8bc
00000200: 033f 6c3d 516f 4abd 6203 e4ba cfc6 913d
00000210: e5c1 013d 9c3a 9f3c c69a 073d ed8d 3e3c
00000220: abb7 ee3b 9ce1 ccbc 0dfb 29bd 7d0e 70bd
00000230: 0fbb d53c 83a6 623c 7d07 453d f869 90bc
00000240: 7739 023c bffd c03c 0455 26bd be91 d9bb
00000250: 4764 51bc 17a9 e6bb 3b94 c23c 4bf2 d93c
00000260: 1c8b 093d e406 65b9 30bd 803b e2eb bbbb
00000270: 54a4 27bd f0f8 643c da04 65bd 069d 11be
00000280: 4d62 81bd 97e1 103b cddf 823c 79eb c4bc
00000290: 6904 173d 43c9 703d 7363 17bd 111e 8b3d
000002a0: 4761 3a3c dfe7 a5bd 0f6d b8ba 6af0 9b3b
000002b0: 2763 d0bd c530 b23c ec07 e0bc 3a2e a63d
000002c0: 01b3 ec3d 8a88 a13d 6aaa 26bc bd2d 283e
000002d0: 17c1 193e 31a4 d93b 9859 f0bc ad9a 2c3c
000002e0: 1a51 a6bd 266c 02bc 0ebf 81bd 47ed f43c
000002f0: 8033 1d3d 0c4c ecbc 2b61 723c f4fc 57bd
00000300: 055e f7bb 0709 523c b542 cb3c e738 6f3b
00000310: 96cd 0a3d f36d 88bc 762e c2bc c07c fa3b
00000320: c65a 333d e71a 813d b58f 02bd 08a6 c93c
00000330: 6b15 9ebb cb2e ec3c 2b2b 55bd 4861 713c
00000340: be41 90bc 14c1 143c 549f a3bc 0dc2 f9ba
00000350: 7d4b f0bc a944 9ebd 31a5 14bd 3340 443b
00000360: 9abb 88bc 3fb7 003d 30b5 67bd f589 963c
00000370: 91c3 75bc c096 87bb 0fd2 c03c f6dc f93c
00000380: 3c56 f53c e32c a53c 42b6 8bbb 6a36 12bd
00000390: fc6e c8bc dd87 d0bd 6d9e b4bc b486 053c
000003a0: 108e afbc 554b f13d 9124 27bc e8cc 60bc
000003b0: 8d35 a9bd 0cc9 20bc 7ca8 2f3c 927e e33c
000003c0: be30 b73b 325f 10bd a354 aebb 3b32 283c
000003d0: 9e34 383a 9ba0 dabc a1ee 5abc a6d2 ec3b
000003e0: 79af a9bc c90f 8cbc 65f9 293c 24e4 9dbc
000003f0: dbab 65bd 2b5e a9bd bd50 f73b 8a19 abbb
0.044360787 0.0073085083 0.0052184146 -0.034113146 0.024852667 -0.078959525 0.0439804 -0.010283287
-0.09974946 0.05109534 0.013684733 0.022547739 0.08465958 0.004675076 -0.020433972 0.005306388
0.05587611 0.11236249 0.05947639 0.0030659258 -0.02556359 0.011784102 -0.0671156 -0.014064869
0.110118814 -0.034957077 -0.03575467 -0.097708605 0.064564236 -0.046061482 -0.09755869 0.047116008
-0.03586353 -0.0031360823 0.065008186 0.0021766135 0.016381804 0.017538125 -0.0007337356 -0.10256423
0.035591953 -0.033150416 0.048866298 -0.06195453 0.041861683 -0.009525901 0.0025373432 0.014235897
-0.019694835 0.0140813785 -0.07325977 -0.004026975 -0.041786123 0.03956698 -0.0014440848 -0.03336268
-0.09550408 -0.008285028 -0.11808762 -0.11057113 0.01956524 -0.14161581 -0.05231915 0.028270496
0.19197202 -0.014563726 0.05891625 0.018930422 -0.08321052 -0.028272336 0.10752241 0.09939112
0.026839433 -0.10148554 -0.034433264 0.0021856432 0.001565043 0.032070097 -0.050726026 0.046889443
-0.011959166 -0.003148445 0.025838254 0.025759878 -0.0020067682 -0.11190003 -0.033094905 -0.025267595
-0.022302495 0.03291059 0.003985133 -0.012556885 -0.023008933 0.0018675629 0.026483022 0.0066112676
0.07117469 0.038659334 -0.09237072 0.0035925845 -0.016229369 -0.04973001 0.035593316 0.03770804
-0.03926487 -0.017400132 -0.09440475 -0.0958072 0.01599195 -0.030681819 -0.07399699 0.0114906505
-0.00879641 0.053855643 0.047426585 0.10623367 -0.021248695 -0.055970605 -0.098862186 0.04535441
-0.027594322 -0.14660518 0.004324068 0.23188771 -0.01810823 -0.008755494 0.045127675 -0.020554742
0.05767728 -0.049422566 -0.0017396028 0.07117998 0.031679053 0.019437127 0.033106588 0.011630517
0.0072850785 -0.025009923 -0.041499186 -0.058607567 0.026090173 0.013833645 0.048102845 -0.017628655
0.007948271 0.023558496 -0.04060842 -0.0066396883 -0.012780256 -0.0070392 0.023752322 0.026604792
0.03357993 -0.00021841709 0.003928803 -0.0057349065 -0.0409282 0.013975367 -0.05591283 -0.14220056
-0.063175775 0.0022107118 0.015975857 -0.024038063 0.03686944 0.058785688 -0.036960077 0.06792844
0.011375732 -0.081008665 -0.0014070588 0.004758884 -0.10175162 0.02175177 -0.027347527 0.08114286
0.1155758 0.07887371 -0.010172466 0.16423698 0.15015064 0.0066418876 -0.029339597 0.010534924
-0.08120938 -0.007960355 -0.06335269 0.029898299 0.038379192 -0.028844856 0.014793674 -0.05273147
-0.00754905 0.012819535 0.024812082 0.0036502422 0.03388747 -0.01665399 -0.023703795 0.007644266
0.04378774 0.06303959 -0.03187533 0.024615303 -0.0048243306 0.028830906 -0.05204312 0.014732666
-0.017609473 0.009079237 -0.019973435 -0.0019055024 -0.02933287 -0.0772794 -0.03629035 0.0029945492
-0.016691018 0.031424757 -0.05656928 0.01837633 -0.01500024 -0.004137844 0.023537664 0.03050087
0.029948346 0.020163005 -0.00426367 -0.035696425 -0.024466984 -0.10182164 -0.0220482 0.0081497915
-0.021430045 0.117819466 -0.010201589 -0.013720728 -0.08262167 -0.009813558 0.010721322 0.027770314
0.0055905273 -0.035247035 -0.005320148 0.010265882 0.00070268835 -0.02668791 -0.013362558 0.0072272597
-0.020713555 -0.01709737 0.010374402 -0.019273825 -0.056072097 -0.08269914 0.0075474666 -0.0052215504

actor.6.bias f4 [16]
00000000: 78d7 8e3d 42b9 063e ecc2 1dbe ec1d e93d
00000010: d786 0c3e 27f8 edbd 413d f5bc 6a1b 92bb
00000020: b7af 283e 2d7b 7fbd 8e7f 39be b010 6c3d
00000030: 5b95 5abd dd0c 7cbc b59f a6bc 43fd adbc
0.06974691 0.13156608 -0.15406388 0.1138266 0.13723312 -0.11619597 -0.029936435 -0.0044588344
0.1647328 -0.06237333 -0.18115065 0.057633102 -0.053365093 -0.015383926 -0.020339826 -0.021238929
